trained_models/dtu_trained_cameras_24/2020/checkpoints/CamParameters/2000.pth (torch_old, 1839 bytes, 1 tensors)

weight f4 [49, 7]
0	0x3f7fd79d	0.99938375
1	0x3c84a5fe	0.016192432
2	0xbdf8c29d	-0.121464945
3	0x3bfb4ab2	0.0076688165
4	0x3f53dd07	0.82759136
5	0x3df9870d	0.12183962
6	0xc000adad	-2.0106003
7	0x3f755821	0.958376
8	0x3c589276	0.013218513
9	0xbe5e9d5d	-0.21739717
10	0xbe6b59af	-0.2298343
11	0x3f9376f8	1.1520681
12	0xbd9b650e	-0.07587634
13	0xbff26214	-1.8936181
14	0x3f5916e8	0.8480058
15	0x3c10115b	0.0087932
16	0xbe9855e7	-0.29753038
17	0xbee601f7	-0.44923374
18	0x3fa962cf	1.3233279
19	0xbece7c98	-0.40329432
20	0xbfdea829	-1.7395068
21	0x3f2f8122	0.68556416
22	0x3baac7f9	0.005211827
23	0xbeb74483	-0.35794458
24	0xbf237e23	-0.63864344
25	0x3fa5f329	1.2964832
26	0xbf449815	-0.7679456
27	0xbfcbb634	-1.5914979
28	0x3ef58f28	0.47960782
29	0x3b43da53	0.002988477
30	0xbeca938a	-0.39565688
31	0xbf49ca1f	-0.7882404
32	0x3f8b1f0e	1.0868852
33	0xbf89b501	-1.0758363
34	0xbfbe642a	-1.4874318
35	0x3ee5ad2c	0.44858682
36	0x3d4d6225	0.050142426
37	0xbef20fa6	-0.47277564
38	0xbf41fcbc	-0.7577627
39	0x3fa72654	1.3058572
40	0xbf970eb8	-1.1801367
41	0xbf9d0748	-1.2267847
42	0x3f1857a2	0.5950872
43	0x3d8abe07	0.06774526
44	0xbee24929	-0.44196442
45	0xbf2ade31	-0.6674529
46	0x3fc332d7	1.524989
47	0xbf61c0a0	-0.8818455
48	0xbfa93fb7	-1.3222569
49	0x3f39982b	0.72497815
50	0x3da8acd0	0.08236086
51	0xbecbad43	-0.39780626
52	0xbf0ea268	-0.5571656
53	0x3fcf7cb6	1.6209934
54	0xbf09906f	-0.53736013
55	0xbfba0df5	-1.4535509
56	0x3f55d799	0.835321
57	0x3dc3c34d	0.09558735
58	0xbeaf46fd	-0.34233847
59	0xbedc75a7	-0.43058512
60	0x3fcaeb8d	1.5853134
61	0xbe3d5aba	-0.1849164
62	0xbfcd1816	-1.6022975
63	0x3f6b812d	0.9199398
64	0x3dd953d4	0.10611692
65	0xbe8c9661	-0.2745848
66	0xbe940095	-0.28906694
67	0x3fb57bb5	1.4178377
68	0x3e046915	0.1293071
69	0xbfe01e44	-1.7509236
70	0x3f76b0f4	0.9636376
71	0x3de421d7	0.11139267
72	0xbe47d4cd	-0.19514771
73	0xbe0a84e0	-0.1352725
74	0x3f91c07a	1.1386864
75	0x3eba6031	0.36401513
76	0xbff0aa56	-1.8801982
77	0x3f791809	0.973023
78	0x3e5baae7	0.21451913
79	0xbdf6525c	-0.120274276
80	0x3bbb07d5	0.0057077208
81	0x3f4fa739	0.81114537
82	0x3f55d963	0.8353483
83	0xbfec9707	-1.848359
84	0x3f73c1c1	0.9521752
85	0x3e577e39	0.21044244
86	0xbe482d07	-0.19548427
87	0xbddf4ad1	-0.10902942
88	0x3f947169	1.159711
89	0x3f39faed	0.7264851
90	0xbfe1d0f7	-1.7641896
91	0x3f69b2e3	0.91288584
92	0x3e4eed96	0.2020782
93	0xbe894e5b	-0.26817593
94	0xbe6324b5	-0.22181971
95	0x3fbb656f	1.464033
96	0x3f0758ea	0.5287005
97	0xbfd30b98	-1.6487913
98	0x3f5c26b7	0.85996574
99	0x3e43d278	0.19123256
100	0xbeac9a30	-0.33711386
101	0xbea97207	-0.33094808
102	0x3fd90d39	1.695716
103	0x3e84bc68	0.25924993
104	0xbfc155e6	-1.5104339
105	0x3f4a6668	0.7906251
106	0x3e35096b	0.17679374
107	0xbecc5cb5	-0.3991448
108	0xbeddde7e	-0.4333381
109	0x3fead463	1.8346065
110	0xbd7b35b2	-0.061330505
111	0xbfae5827	-1.3620652
112	0x3f33bf10	0.70213413
113	0x3e21adb6	0.15788922
114	0xbee7301f	-0.451539
115	0xbf068585	-0.52547485
116	0x3fef47f6	1.8693836
117	0xbed12fce	-0.40856785
118	0xbf9b91d8	-1.2153883
119	0x3f1a6ead	0.6032513
120	0x3e0c7365	0.13715895
121	0xbefe7d34	-0.49704897
122	0xbf1c23f1	-0.6099234
123	0x3fe6797a	1.8005822
124	0xbf411bea	-0.7543322
125	0xbf8a4c23	-1.0804485
126	0x3efb4798	0.4907806
127	0x3de80db0	0.11330736
128	0xbf07ff7c	-0.53124213
129	0xbf2e436a	-0.68071616
130	0x3fd12583	1.6339573
131	0xbf894f99	-1.0727416
132	0xbf7855a2	-0.97005665
133	0x3ed1a5b6	0.4094674
134	0x3e184094	0.14868385
135	0xbf1cd452	-0.61261475
136	0xbf29544a	-0.6614424
137	0x3fd619ab	1.6726583
138	0xbf9b24b4	-1.2120576
139	0xbf18086e	-0.5938786
140	0x3f018e20	0.5060749
141	0x3e376ca8	0.17912543
142	0xbf14e21f	-0.58157533
143	0xbf1c1ca8	-0.60981226
144	0x3ff0c2cb	1.8809446
145	0xbf6b064c	-0.91806483
146	0xbf304603	-0.6885683
147	0x3f191edc	0.5981271
148	0x3e549877	0.20761286
149	0xbf0b34ca	-0.54377425
150	0xbf0d245a	-0.55133593
151	0x4000de7f	2.01358
152	0xbf16ce36	-0.589084
153	0xbf4f1260	-0.80887413
154	0x3f2e1b61	0.68010527
155	0x3e6e8c0d	0.23295613
156	0xbefea59f	-0.49735734
157	0xbef7daf5	-0.48409238
158	0x4003e2bf	2.0607145
159	0xbe792bc4	-0.24333102
160	0xbf71efce	-0.9450654
161	0x3f40f5bc	0.7537496
162	0x3e82c849	0.2554343
163	0xbee3b83f	-0.44476506
164	0xbed26163	-0.41089925
165	0x40013319	2.0187438
166	0x3dce95be	0.10087155
167	0xbf8ba4a5	-1.090962
168	0x3f50b8b3	0.8153183
169	0x3e8c0c20	0.27353
170	0xbec525b1	-0.3850532
171	0xbea9b2d5	-0.3314425
172	0x3ff1e667	1.8898438
173	0x3ed6e4fb	0.41971573
174	0xbf9e7883	-1.2380527
175	0x3f5e135b	0.86748284
176	0x3e93d14e	0.28870624
177	0xbea3c760	-0.3198805
178	0xbe7d4908	-0.2473489
179	0x3fd75ede	1.6825826
180	0x3f333795	0.70006686
181	0xbfb07464	-1.378552
182	0x3f681479	0.9065624
183	0x3e99cf14	0.300408
184	0xbe8020e2	-0.25025088
185	0xbe23279b	-0.15933077
186	0x3fb3ed00	1.4056702
187	0x3f6d9c5d	0.92816716
188	0xbfc05c72	-1.5028212
189	0x3f6f7ca1	0.93549544
190	0x3e9ddaf1	0.30831102
191	0xbe37cf32	-0.17950132
192	0xbd900a29	-0.07033188
193	0x3f8ac66a	1.0841801
194	0x3f8aa923	1.0832866
195	0xbfcd280f	-1.602785
196	0x3f67a602	0.9048768
197	0x3ecd3c9f	0.40085313
198	0xbde7c83f	-0.11317491
199	0x3b2fe08c	0.0026836721
200	0x3f435690	0.7630396
201	0x3fb68e46	1.4262168
202	0xbfb614ac	-1.4225059
203	0x3f64e2cf	0.8940858
204	0x3ecc2122	0.39869028
205	0xbe416e6b	-0.18889777
206	0xbd939394	-0.07205883
207	0x3f8f7feb	1.1210912
208	0x3faba6eb	1.3410314
209	0xbfac8959	-1.3479415
210	0x3f5d64fc	0.86482215
211	0x3ec76765	0.3894607
212	0xbe844301	-0.2583237
213	0xbe13175b	-0.14364378
214	0x3fb84ccc	1.4398437
215	0x3f990133	1.1953491
216	0xbfa01b83	-1.2508396
217	0x3f57412d	0.84083825
218	0x3ec330c6	0.3812315
219	0xbeab9fd6	-0.33520383
220	0xbe60d164	-0.21954876
221	0x3fdd1c5a	1.7274277
222	0x3f78112d	0.9690121
223	0xbf8fe0df	-1.12405
224	0x3f4aeae8	0.7926469
225	0x3eb9e3e6	0.36306685
226	0xbeccbd11	-0.39987996
227	0xbe93524c	-0.28773725
228	0x3ff931c5	1.9468313
229	0x3f339e57	0.7016348
230	0xbf7cd47d	-0.9876173
231	0x3f3d3909	0.73915154
232	0x3eaf15b0	0.34196234
233	0xbeec65fe	-0.46171564
234	0xbeb54431	-0.35403588
235	0x4006598b	2.0992153
236	0x3ec8c3b7	0.3921182
237	0xbf57e457	-0.84332794
238	0x3f2d5c47	0.6771893
239	0x3ea29026	0.31750602
240	0xbf0491cc	-0.5178497
241	0xbed4e3e7	-0.41580126
242	0x400b480e	2.1762729
243	0x3d74ab36	0.059733592
244	0xbf328d1b	-0.6974656
245	0x3f1bae6a	0.6081301
246	0x3e94281b	0.28936848
247	0xbf11982f	-0.5687284
248	0xbef27106	-0.47351855
249	0x400b238d	2.1740448
250	0xbe922c6d	-0.2854952
251	0xbf0e7fb2	-0.556636
252	0x3f080774	0.5313637
253	0x3e83e346	0.25759333
254	0xbf1cd079	-0.61255604
255	0xbf067eee	-0.5253743
