trained_models/dtu_trained_cameras_122/2020/checkpoints/CamParameters/2000.pth (torch_old, 2259 bytes, 1 tensors)

weight f4 [64, 7]
0	0x3f7da5dc	0.99081206
1	0x3c1ae9bd	0.009455142
2	0xbdfbd928	-0.12297279
3	0x3ab86ee1	0.001407113
4	0x3f4f3b6b	0.8095004
5	0x3c920fc7	0.017829789
6	0xc01058fe	-2.2554317
7	0x3f72c293	0.94828147
8	0x3c0a759f	0.008450895
9	0xbe5ef23b	-0.21772091
10	0xbe6edfb8	-0.2332753
11	0x3f977384	1.1832128
12	0xbe571c0a	-0.2100679
13	0xc007b238	-2.1202526
14	0x3f578849	0.8419233
15	0x3be16e4d	0.006879604
16	0xbe97dceb	-0.29660735
17	0xbee686f1	-0.45024827
18	0x3fb0ef07	1.3822945
19	0xbf1524c3	-0.5825922
20	0xbff957b7	-1.9479893
21	0x3f305266	0.6887573
22	0x3bbe597c	0.005809007
23	0xbeb7f2ef	-0.3592753
24	0xbf23a1bd	-0.6391867
25	0x3faee1f9	1.3662711
26	0xbf809628	-1.0045824
27	0xbfe48bd0	-1.7855167
28	0x3f062f14	0.52415586
29	0x3d181031	0.037124816
30	0xbec51803	-0.38494882
31	0xbf39d665	-0.72592765
32	0x3fa92677	1.3214864
33	0xbf99291c	-1.196567
34	0xbfd2dc94	-1.6473565
35	0x3ef4c693	0.4780775
36	0x3d8f53ba	0.069983914
37	0xbef0d8f6	-0.47040528
38	0xbf3ab33f	-0.7292976
39	0x3fc2fc38	1.5233221
40	0xbfb4b093	-1.4116386
41	0xbfad1c4a	-1.3524258
42	0x3f24409a	0.64161074
43	0x3de481f4	0.11157599
44	0xbeda2b90	-0.4261136
45	0xbf19af9f	-0.600336
46	0x3fe8e0b1	1.819357
47	0xbf53df32	-0.82762444
48	0xbfba03b9	-1.4532386
49	0x3f3959fd	0.72402936
50	0x3da7393d	0.08165214
51	0xbecacbc5	-0.3960859
52	0xbf0e4bfc	-0.5558469
53	0x3fdf224b	1.743234
54	0xbf3b57aa	-0.7318064
55	0xbfcfb08c	-1.6225753
56	0x3f541f12	0.8285991
57	0x3dbb019f	0.091311686
58	0xbeae5220	-0.3404703
59	0xbedd14dc	-0.43179977
60	0x3fd82406	1.6885993
61	0xbeaa266f	-0.33232448
62	0xbfe501b8	-1.789115
63	0x3f69f4e4	0.913893
64	0x3dcd43fe	0.10022734
65	0xbe8cdc85	-0.27511993
66	0xbe962298	-0.29323268
67	0x3fbf67e3	1.4953579
68	0x3cda4e03	0.026648527
69	0xbffaa858	-1.9582624
70	0x3f7585e4	0.95907426
71	0x3dd6cd2e	0.10488354
72	0xbe4a694f	-0.19766735
73	0xbe109859	-0.14120616
74	0x3f96c90f	1.1780108
75	0x3e997a85	0.29976287
76	0xc006eb87	-2.1081254
77	0x3f772a4e	0.96548927
78	0x3e512066	0.20422515
79	0xbdfc75bb	-0.12327143
80	0xbaa6d7b8	-0.0012729084
81	0x3f4d93cf	0.80303663
82	0x3f59ffd0	0.85155964
83	0xc005385d	-2.0815651
84	0x3f720f04	0.9455416
85	0x3e4f0eba	0.20220461
86	0xbe4b0641	-0.19826604
87	0xbdeb8e2c	-0.115017265
88	0x3f9b255a	1.2120774
89	0x3f39dbb5	0.7260087
90	0xbffd75ac	-1.9801536
91	0x3f6a37bd	0.914913
92	0x3e487484	0.19575697
93	0xbe8b8ec8	-0.2725737
94	0xbe6b1a2b	-0.22959201
95	0x3fc7dfd6	1.5615184
96	0x3ef9c34f	0.4878182
97	0xbfebbb67	-1.8416566
98	0x3f5c7016	0.8610853
99	0x3e406dbe	0.18791863
100	0xbead6671	-0.3386722
101	0xbeab7c5d	-0.3349332
102	0x3fea24e9	1.8292514
103	0x3e437a17	0.19089542
104	0xbfd7c20a	-1.6856091
105	0x3f4a17ef	0.7894277
106	0x3e3000b4	0.17187768
107	0xbecd0d15	-0.40049043
108	0xbee0d432	-0.43911892
109	0x3ffdf8fe	1.9841611
110	0xbe4a5434	-0.19758683
111	0xbfc1176b	-1.5085272
112	0x3f32c91d	0.69838125
113	0x3e1ae9e1	0.1512828
114	0xbee9bc7c	-0.45651615
115	0xbf09efa5	-0.53881294
116	0x4000cff1	2.0126917
117	0xbf21727d	-0.6306532
118	0xbfaa205f	-1.3291129
119	0x3f1c33ed	0.6101673
120	0x3e0fcdde	0.14043376
121	0xbefb8fbe	-0.49133104
122	0xbf1952f6	-0.59892213
123	0x3ffe5c19	1.9871856
124	0xbf736e22	-0.95089924
125	0xbf98ad51	-1.1927892
126	0x3f01a088	0.50635576
127	0x3df6c941	0.12050105
128	0xbf082eb4	-0.53196263
129	0xbf2c1f2e	-0.67235076
130	0x3fe9776f	1.8239573
131	0xbfaa646b	-1.3311895
132	0xbf871b7b	-1.0555261
133	0x3edcdbdc	0.4313649
134	0x3e1d7669	0.15377201
135	0xbf1bdf36	-0.6088747
136	0xbf28e844	-0.6597941
137	0x3fee4ab5	1.8616549
138	0xbfbdcb52	-1.4827673
139	0xbf233bc1	-0.6376305
140	0x3f03a07d	0.5141676
141	0x3e3a0034	0.1816414
142	0xbf152836	-0.5826448
143	0xbf1bd533	-0.6087219
144	0x4005099e	2.078712
145	0xbf95a528	-1.1691027
146	0xbf381e8e	-0.7192162
147	0x3f1978db	0.59950036
148	0x3e53864b	0.20656697
149	0xbf0a4375	-0.5400918
150	0xbf0c6273	-0.5483772
151	0x400de3e5	2.2170346
152	0xbf4947ef	-0.78625387
153	0xbf5da3cb	-0.86578053
154	0x3f2e2566	0.68025815
155	0x3e6dca8d	0.23221798
156	0xbefef289	-0.49794415
157	0xbef8499a	-0.48493654
158	0x40117f72	2.2734036
159	0xbec7732a	-0.3895505
160	0xbf8246a5	-1.0177809
161	0x3f41255e	0.7544764
162	0x3e81955c	0.25309265
163	0xbee45ff7	-0.44604465
164	0xbed3ed51	-0.41391996
165	0x400ddfed	2.2167923
166	0x3c1d29b0	0.009592459
167	0xbf98a478	-1.1925192
168	0x3f512a14	0.8170483
169	0x3e89eb27	0.2693722
170	0xbec6d2e4	-0.38832772
171	0xbeacfd6c	-0.33787096
172	0x40040ea8	2.0633945
173	0x3ebdaf32	0.37047726
174	0xbfaec2cf	-1.3653201
175	0x3f5ed759	0.87047344
176	0x3e91d5c1	0.28483394
177	0xbea6165d	-0.32438937
178	0xbe8204cc	-0.25394285
179	0x3fe9a8a6	1.8254592
180	0x3f33b68c	0.7020042
181	0xbfc3c9a7	-1.5295914
182	0x3f689140	0.90846634
183	0x3e96220d	0.29322854
184	0xbe835e73	-0.25657997
185	0xbe2c30a0	-0.16815424
186	0x3fc1341c	1.5094028
187	0x3f748413	0.9551403
188	0xbfd68680	-1.6759796
189	0x3f6ebd63	0.9325773
190	0x3e9939bc	0.2992686
191	0xbe3cf2e2	-0.18452027
192	0xbd9fb5ad	-0.07798324
193	0x3f911e30	1.1337337
194	0x3f928442	1.1446612
195	0xbfe5feaf	-1.7968348
196	0x3f6b9ef6	0.9203943
197	0x3ecca6e4	0.39971077
198	0xbe020d86	-0.12700471
199	0xbbf034f4	-0.0073305313
200	0x3f4a0f6e	0.78929794
201	0x3fc7d93c	1.561317
202	0xbfcb3aa4	-1.5877271
203	0x3f663fe5	0.89941245
204	0x3ec9e4bd	0.39432326
205	0xbe4b4c89	-0.19853415
206	0xbda594a4	-0.080849916
207	0x3f98d153	1.1938881
208	0x3fba737b	1.4566492
209	0xbfbf726b	-1.4956793
210	0x3f5f6de9	0.87277085
211	0x3ec5d28c	0.38637197
212	0xbe8a8022	-0.27050883
213	0xbe1e28f7	-0.15445314
214	0x3fc90549	1.5704738
215	0x3fa2a60e	1.2706926
216	0xbfafcc02	-1.3734133
217	0x3f55dcf2	0.8354026
218	0x3ebeb9e5	0.372512
219	0xbead8932	-0.33893734
220	0xbe67b2e5	-0.22626837
221	0x3ff23fb8	1.8925695
222	0x3f812c4c	1.0091643
223	0xbf9d8222	-1.2305338
224	0x3f49b870	0.78797054
225	0x3eb4c23e	0.35304445
226	0xbeccfabf	-0.40035054
227	0xbe965d05	-0.29367843
228	0x4008d167	2.137781
229	0x3f30f5c7	0.69125026
230	0xbf8a2162	-1.0791438
231	0x3f3c4ab2	0.73551476
232	0x3eaa03b0	0.33205938
233	0xbeed54ac	-0.46353662
234	0xbeb9e35a	-0.36306268
235	0x4013dcf2	2.3103604
236	0x3ea1b7f7	0.31585667
237	0xbf68e26b	-0.90970486
238	0x3f2cd52b	0.6751277
239	0x3ea0496d	0.3130602
240	0xbf050a6f	-0.51969045
241	0xbed72718	-0.42022014
242	0x401a02e3	2.4064262
243	0xbd5ca8b7	-0.053871837
244	0xbf39a817	-0.7252211
245	0x3f1bb4c7	0.6082272
246	0x3e92376d	0.28557912
247	0xbf113e01	-0.56735235
248	0xbef3933a	-0.47573262
249	0x4019a297	2.4005487
250	0xbee4c28e	-0.44679683
251	0xbf115d1f	-0.56782717
252	0x3f08fa6b	0.5350711
253	0x3e82fb5e	0.25582403
254	0xbf1c5d2a	-0.6107966
255	0xbf06d4ab	-0.52668256
