trained_models/dtu_trained_cameras_40/2020/checkpoints/CamParameters/2000.pth (torch_old, 1839 bytes, 1 tensors)

weight f4 [49, 7]
0.99419975 0.014768395 -0.12150208 0.0047979522 0.6428434 0.101043686 -1.8678552 0.95500535
0.012176881 -0.21742643 -0.23091932 0.95413744 -0.08842969 -1.7565303 0.8438579 0.008452448
-0.29679316 -0.4489628 1.1186304 -0.40181527 -1.6103565 0.68197095 0.0041753165 -0.357521
-0.6387134 1.0904089 -0.7560056 -1.467291 0.47518688 -0.0008041481 -0.3956038 -0.7870593
0.87876755 -1.0592842 -1.3664982 0.4469233 0.048909534 -0.47532168 -0.76070225 1.0973605
-1.1561698 -1.1125029 0.5958458 0.06655781 -0.44529474 -0.67227 1.3102881 -0.8687399
-1.2062873 0.72316074 0.0817435 -0.39832962 -0.5584214 1.4058117 -0.53320926 -1.3337152
0.83067083 0.094352864 -0.3408228 -0.43005836 1.3695894 -0.19207065 -1.4774826 0.91735935
0.10523001 -0.2749081 -0.28982493 1.2106702 0.109522834 -1.6192923 0.9651471 0.11111983
-0.19650084 -0.1375928 0.94426584 0.33608723 -1.7418611 0.96996015 0.2128492 -0.11999979
0.0035651613 0.6245205 0.78890604 -1.7107395 0.95147324 0.20970042 -0.19670598 -0.111138545
0.96480876 0.68451554 -1.6292722 0.91447073 0.20214674 -0.26986027 -0.2239367 1.2567385
0.4952998 -1.518836 0.85971326 0.19083112 -0.33798397 -0.33223104 1.4781812 0.235839
-1.3875028 0.7885387 0.17579758 -0.39900604 -0.43396494 1.6112602 -0.0743927 -1.2451204
0.7007996 0.1568066 -0.45274788 -0.52729714 1.6450996 -0.41144794 -1.1030663 0.6007765
0.13539702 -0.49764496 -0.6108826 1.5766964 -0.7467926 -0.97370255 0.48845345 0.111369416
-0.5323681 -0.6817804 1.4131204 -1.0542312 -0.8665599 0.4096666 0.14701578 -0.6160975
-0.66592234 1.4483225 -1.1871365 -0.50615585 0.50438666 0.1772247 -0.5830713 -0.61123174
1.6533856 -0.90536433 -0.5951234 0.5956786 0.20605004 -0.54501295 -0.55242306 1.7823308
-0.5884156 -0.7094793 0.67845094 0.23193757 -0.4991269 -0.48590505 1.8303946 -0.25381768
-0.84021795 0.7526648 0.2548726 -0.44651306 -0.41252196 1.7908545 0.08014377 -0.98095965
0.81540626 0.27386335 -0.38610607 -0.33261633 1.6660138 0.3926006 -1.1234037 0.86692846
0.28899655 -0.32041287 -0.24807443 1.4658598 0.6637866 -1.2580181 0.9053274 0.2998289
-0.25098354 -0.16060933 1.1995689 0.87943697 -1.3771219 0.9304715 0.30604714 -0.17827415
-0.0711265 0.885218 1.028647 -1.4743422 0.9078989 0.40212008 -0.11373263 0.002029218
0.57745343 1.3596238 -1.2986116 0.8929194 0.39859906 -0.18861952 -0.07229726 0.9202572
1.2791908 -1.2263647 0.86893475 0.39122233 -0.2620884 -0.14592682 1.2342117 1.132658
-1.1298106 0.83468944 0.37920228 -0.33288747 -0.21800315 1.5054107 0.9251822 -1.0124938
0.79027325 0.36276412 -0.399834 -0.2875081 1.720377 0.6663216 -0.88047594 0.73643684
0.34168088 -0.46178305 -0.35384154 1.8676068 0.36641032 -0.7412376 0.6751051 0.31694147
-0.51951975 -0.4167815 1.9424846 0.039762482 -0.5987768 0.60509825 0.28798416 -0.57068914
-0.47470492 1.9384395 -0.29667485 -0.46227562 0.52866554 0.25590134 -0.61444706 -0.5264948
00000000: e083 7e3f 23f7 713c 15d6 f8bd 2438 9d3b
00000010: 6391 243f feef ce3d e115 efbf 3b7b 743f
00000020: 8a81 473c 09a5 5ebe 1d76 6cbe 5a42 743f
00000030: a01a b5bd fcd5 e0bf 1207 583f 237c 0a3c
00000040: 46f5 97be 74de e5be 482f 8f3f bbba cdbe
00000050: 2920 cebf a695 2e3f 18d1 883b fe0c b7be
00000060: b982 23bf 8592 8b3f 9589 41bf 31d0 bbbf
00000070: b24b f33e 77cd 52ba 958c cabe b87c 49bf
00000080: e9f6 603f a096 87bf 6ae9 aebf 21d3 e43e
00000090: 5d55 483d 5d5d f3be 62bd 42bf 4f76 8c3f
000000a0: 5ffd 93bf 7f66 8ebf 5a89 183f 764f 883d
000000b0: acfd e3be e319 2cbf 85b7 a73f bd65 5ebf
000000c0: 9f67 9abf 1021 393f 2369 a73d dcf1 cbbe
000000d0: b4f4 0ebf a3f1 b33f 6780 08bf 2eb7 aabf
000000e0: d8a6 543f 133c c13d 5380 aebe 9c30 dcbe
000000f0: b54e af3f 2bae 44be 261e bdbf 10d8 6a3f
00000100: d582 d73d c1c0 8cbe ef63 94be 3ef7 9a3f
00000110: 824d e03d f844 cfbf e113 773f cb92 e33d
00000120: 8437 49be 21e5 0cbe 68bb 713f a013 ac3e
00000130: 4ef5 debf 4f4f 783f 24f5 593e 73c2 f5bd
00000140: 7ba5 693b 93e0 1f3f bff5 493f 83f9 dabf
00000150: c093 733f b5bb 563e 4b6d 49be 9b9c e3bd
00000160: b5fd 763f 693c 2f3f fe8b d0bf c11a 6a3f
00000170: 8eff 4e3e 202b 8abe aa4f 65be cfdc a03f
00000180: ef97 fd3e 3869 c2bf 2b16 5c3f 3c69 433e
00000190: 3c0c adbe 301a aabe 0b35 bd3f c77f 713e
000001a0: b199 b1bf acdd 493f 4804 343e 854a ccbe
000001b0: a730 debe c63d ce3f 335b 98bd 1b60 9fbf
000001c0: 9a67 333f e991 203e 92ce e7be f2fc 06bf
000001d0: a092 d23f 4ea9 d2be 4731 8dbf 7dcc 193f
000001e0: 84a5 0a3e 52cb febe cd62 1cbf 30d1 c93f
000001f0: cd2d 3fbf 9244 79bf 9216 fa3e a615 e43d
00000200: 4749 08bf 2989 2ebf 21e1 b43f 0cf1 86bf
00000210: dfd6 5dbf d2bf d13e 4e8b 163e 91b8 1dbf
00000220: e379 2abf a262 b93f 17f4 97bf 6e93 01bf
00000230: 7c1f 013f 647a 353e 2944 15bf af79 1cbf
00000240: 24a2 d33f f5c5 67bf 025a 18bf 657e 183f
00000250: c8fe 523e f885 0bbf 996b 0dbf 6a23 e43f
00000260: 68a2 16bf 6fa0 35bf f6ae 2d3f 0b81 6d3e
00000270: 908d ffbe 8cc8 f8be 5f4a ea3f 64f4 81be
00000280: 8618 57bf a4ae 403f a97e 823e 5c9d e4be
00000290: 1436 d3be b83a e53f 6b22 a43d 2c20 7bbf
000002a0: 77be 503f d137 8c3e b2af c5be b04c aabe
000002b0: f13f d53f f202 c93e b1cb 8fbf 06ef 5d3f
000002c0: 5bf7 933e 280d a4be 3907 7ebe 4ba1 bb3f
000002d0: ebed 293f bd06 a1bf 89c3 673f 2c83 993e
000002e0: ea80 80be c676 24be 798b 993f c822 613f
000002f0: 8845 b0bf 6133 6e3f 36b2 9c3e 808d 36be
00000300: c5aa 91bd a69d 623f b4aa 833f 3fb7 bcbf
00000310: 106c 683f afe2 cd3e a7ec e8bd a1fc 043b
00000320: fdd3 133f 2708 ae3f e838 a6bf 5e96 643f
00000330: 2d15 cc3e 7a25 41be 9610 94bd fa95 6b3f
00000340: 86bc a33f 85f9 9cbf 8272 5e3f 4b4e c83e
00000350: 7330 86be d76d 15be a6fa 9d3f f0fa 903f
00000360: a29d 90bf 35ae 553f cd26 c23e 3a70 aabe
00000370: 383c 5fbe 4cb1 c03f bed8 6c3f 6699 81bf
00000380: 594f 4a3f 38bc b93e 0bb7 ccbe 4334 93be
00000390: 5035 dc3f 0d94 2a3f df66 61bf 2087 3c3f
000003a0: ccf0 ae3e d46e ecbe b82a b5be bd0d ef3f
000003b0: 229a bb3e bfc1 3dbf b0d3 2c3f 2746 a23e
000003c0: 3fff 04bf 6364 d5be 56a3 f83f fcdd 223d
000003d0: 7049 19bf b8e7 1a3f a972 933e af18 12bf
000003e0: 860c f3be c91e f83f c4e5 97be 64af ecbe
000003f0: a056 073f 8005 833e 674c 1dbf 5dc8 06bf
