trained_models/dtu_trained_cameras_106/2020/checkpoints/CamParameters/2000.pth (torch_old, 2259 bytes, 1 tensors)

weight f4 [64, 7]
0.993715 0.016359726 -0.11996138 0.005621603 0.78411233 0.048703037 -1.8998392 0.9490659
0.012818556 -0.21363634 -0.22989626 1.096678 -0.14411534 -1.790239 0.8449419 0.008462482
-0.29335415 -0.44967827 1.260127 -0.45873147 -1.6460646 0.68190795 0.0009816529 -0.3527105
-0.6410798 1.2228523 -0.8213352 -1.5063683 0.47167283 -0.010771315 -0.391803 -0.7907147
0.99212295 -1.140657 -1.404945 0.44560114 0.045845866 -0.4731919 -0.7596892 1.2402962
-1.2292682 -1.1426383 0.59533566 0.065320194 -0.44197458 -0.6714173 1.4582022 -0.93377686
-1.2403233 0.7242925 0.0821352 -0.39609346 -0.5585992 1.5562941 -0.5912191 -1.3674059
0.83180356 0.095537 -0.33928323 -0.42969906 1.5210245 -0.24620938 -1.510055 0.91185004
0.10553954 -0.2714157 -0.28749406 1.358617 0.05755256 -1.6515133 0.9643957 0.112094596
-0.19572785 -0.13653038 1.0912664 0.2850846 -1.773088 0.9747863 0.21473472 -0.121104755
0.004786478 0.77193546 0.74060774 -1.7410265 0.9498802 0.2100841 -0.19632052 -0.11000898
1.1142443 0.6354392 -1.6588708 0.91517484 0.2034921 -0.26919168 -0.22229545 1.407235
0.44633374 -1.5471157 0.8593591 0.19183017 -0.33663148 -0.33118078 1.6314636 0.18560898
-1.4164462 0.79063535 0.17734855 -0.39839268 -0.434183 1.7665902 -0.1269549 -1.2745748
0.70187396 0.1576978 -0.451143 -0.5270725 1.8008176 -0.46805504 -1.1330488 0.60151947
0.13597271 -0.49589086 -0.6105577 1.732954 -0.8073603 -1.0029223 0.48992008 0.11139329
-0.53232306 -0.6831678 1.5672317 -1.1211741 -0.89382803 0.41292337 0.14984316 -0.6145247
-0.6684215 1.6115667 -1.2486582 -0.5369951 0.5049506 0.17840302 -0.58121234 -0.61040294
1.8126769 -0.96665794 -0.61933637 0.596077 0.20721708 -0.54282856 -0.5515438 1.9422235
-0.6454274 -0.73529243 0.6804667 0.23407805 -0.49809983 -0.48556846 1.9894773 -0.30529863
-0.86635816 0.7525056 0.25612718 -0.44460917 -0.41115946 1.9478198 0.030237949 -1.0070494
0.8152003 0.27516672 -0.38550913 -0.33186594 1.8222268 0.34332278 -1.1483499 0.864303
0.28956395 -0.3192491 -0.24635778 1.619952 0.61721945 -1.2836138 0.90714675 0.30161548
-0.2516812 -0.16002037 1.3513656 0.8336348 -1.4034998 0.9310928 0.30756238 -0.17851712
-0.06974834 1.0334605 0.98419327 -1.5013914 0.9083544 0.40409848 -0.116460264 0.0025450883
0.7310019 1.3185354 -1.3218577 0.8910237 0.3995268 -0.18969536 -0.07127197 1.0725594
1.237257 -1.2484541 0.8682147 0.3927322 -0.262128 -0.14451788 1.3862753 1.0906097
-1.1517859 0.83434325 0.38075247 -0.3325489 -0.21685264 1.6601213 0.8816132 -1.0340799
0.79052657 0.36441946 -0.39953777 -0.2867935 1.8765863 0.6195235 -0.9019831 0.7354867
0.34250063 -0.46023783 -0.3527843 2.0261083 0.316561 -0.76276267 0.6758273 0.3187327
-0.5181641 -0.4161884 2.1018336 -0.010037776 -0.62112564 0.60577244 0.29000622 -0.5674999
-0.47291967 2.0993593 -0.34580365 -0.48623136 0.52965546 0.25806847 -0.61284626 -0.5258347
00000000: 1b64 7e3f d504 863c 50ae f5bd 6d35 b83b
00000010: 96bb 483f d67c 473d ee2d f3bf fcf5 723f
00000020: ec04 523c 7cc3 5abe ed69 6bbe f25f 8c3f
00000030: f992 13be 8d26 e5bf 1d4e 583f 39a6 0a3c
00000040: 8432 96be 3b3c e6be d74b a13f dade eabe
00000050: 3fb2 d2bf 8591 2e3f ceaa 803a 7896 b4be
00000060: ce1d 24bf 6d86 9c3f 0643 52bf add0 c0bf
00000070: 1a7f f13e 2b7a 30bc 679a c8be 476c 4abf
00000080: c5fb 7d3f 0c01 92bf 3dd5 b3bf d525 e43e
00000090: e0c8 3b3d 3546 f2be fe7a 42bf 07c2 9e3f
000000a0: a958 9dbf f941 92bf eb67 183f 98c6 853d
000000b0: 7e4a e2be 01e2 2bbf 5fa6 ba3f 000c 6fbf
000000c0: eac2 9ebf 3c6b 393f 8036 a83d c3cc cabe
000000d0: 5b00 0fbf a534 c73f 235a 17bf 2807 afbf
000000e0: 14f1 543f e7a8 c33d 88b6 adbe 8401 dcbe
000000f0: eeb0 c23f 501e 7cbe 7b49 c1bf 016f 693f
00000100: 1d25 d83d 00f7 8abe 6c32 93be 29e7 ad3f
00000110: 3cbc 6b3d ca64 d3bf a3e2 763f da91 e53d
00000120: e26c 48be 9fce 0bbe 9eae 8b3f 9cf6 913e
00000130: 8cf4 e2bf 988b 793f 6be3 5b3e c505 f8bd
00000140: e3d7 9c3b 909d 453f 7898 3d3f f5d9 debf
00000150: 592b 733f 4920 573e 3f08 49be 634c e1bd
00000160: 8f9f 8e3f 25ac 223f e155 d4bf e648 6a3f
00000170: 3c60 503e 7ed3 89be 6ba1 63be 4720 b43f
00000180: db85 e43e e307 c6bf f5fe 5b3f 216f 443e
00000190: f65a acbe 8790 a9be cdd3 d03f 4810 3e3e
000001a0: 1c4e b5bf 1467 4a3f dc9a 353e 20fa cbbe
000001b0: 3c4d debe a11f e23f 7700 02be 4425 a3bf
000001c0: 03ae 333f 887b 213e 37fc e6be 39ee 06bf
000001d0: 3181 e63f e9a4 efbe be07 91bf 2efd 193f
000001e0: 6e3c 0b3e 68e5 fdbe 824d 1cbf 70d1 dd3f
000001f0: 2aaf 4ebf c25f 80bf ced6 fa3e 2a22 e43d
00000200: 5346 08bf 16e4 2ebf 0c9b c83f a282 8fbf
00000210: ead1 64bf b16a d33e 7c70 193e 7e51 1dbf
00000220: ac1d 2bbf d147 ce3f 08d4 9fbf 8378 09bf
00000230: 7144 013f 48af 363e 55ca 14bf 5e43 1cbf
00000240: cc05 e83f e576 77bf d48c 1ebf 8198 183f
00000250: b730 543e d0f6 0abf f931 0dbf c89a f83f
00000260: bb3a 25bf 203c 3cbf 1133 2e3f 28b2 6f3e
00000270: f106 ffbe 6e9c f8be 31a7 fe3f 1a50 9cbe
00000280: a6c9 5dbf 35a4 403f 1a23 833e d0a3 e3be
00000290: 7e83 d2be 2952 f93f 93b5 f73c ffe6 80bf
000002a0: f8b0 503f a7e2 8c3e 7461 c5be 55ea a9be
000002b0: ba3e e93f 01c8 af3e 21fd 92bf f642 5d3f
000002c0: ba41 943e 9e74 a3be 3745 7cbe 965a cf3f
000002d0: 1802 1e3f 754d a4bf c53a 683f 586d 9a3e
000002e0: 5cdc 80be 61dc 23be 8cf9 ac3f 1769 553f
000002f0: e2a5 b3bf 195c 6e3f d178 9d3e 31cd 36be
00000300: 38d8 8ebd 6f48 843f 17f4 7b3f 982d c0bf
00000310: ea89 683f ffe5 ce3e b882 eebd 7fcb 263b
00000320: f122 3b3f c5c5 a83f a232 a9bf 211a 643f
00000330: c78e cc3e 803f 42be 0af7 91bd a049 893f
00000340: 705e 9e3f 58cd 9fbf 5243 5e3f 3214 c93e
00000350: a435 86be 7ffc 13be 7871 b13f 1999 8b3f
00000360: b86d 93bf 8597 553f fdf1 c23e d943 aabe
00000370: 9e0e 5ebe db7e d43f 67b1 613f bb5c 84bf
00000380: f35f 4a3f 3095 ba3e 3790 ccbe 99d6 92be
00000390: fb33 f03f 1899 1e3f 5de8 66bf db48 3c3f
000003a0: 3e5c af3e 4ba4 ebbe 25a0 b4be c2ab 0140
000003b0: 4914 a23e 6a44 43bf 0503 2d3f ef30 a33e
000003c0: 67a6 04bf a516 d5be 7184 0640 7c75 24bc
000003d0: 1702 1fbf e713 1b3f b27b 943e ac47 11bf
000003e0: 8722 f2be e75b 0640 2d0d b1be 51f3 f8be
000003f0: 8097 073f 8d21 843e 7ee3 1cbf 1a9d 06bf
