trained_models/dtu_trained_cameras_118/2020/checkpoints/CamParameters/2000.pth (torch_old, 2259 bytes, 1 tensors)

weight f4 [64, 7]
00000000: 6c5b 7d3f 66b4 6c3c 999d f1bd cde0 8f3b
00000010: e772 4a3f 3af2 823d 1050 fabf 699f 733f
00000020: e181 393c ef1b 5cbe 7208 6dbe b584 903f
00000030: 4983 10be 58e8 eabf 0f90 573f 214c f33b
00000040: c50f 97be 1b18 e6be ad48 a73f bb63 f4be
00000050: f3c4 d6bf 686c 2e3f 4560 2b3b 8549 b6be
00000060: 8eae 23bf ad16 a33f 4152 5bbf 981d c3bf
00000070: c749 f43e 192c e9ba 591d cbbe 5baf 4abf
00000080: 636e 863f c95b 97bf 825b b5bf 5c55 e43e
00000090: d823 423d 935a f2be db8b 42bf 3571 a43f
000000a0: b0ba a4bf 16a5 92bf 07c6 173f bf42 843d
000000b0: af4e e2be 8088 2bbf f97e c13f fcb8 7abf
000000c0: 618e 9fbf 63c3 383f 1221 a43d 4806 cbbe
000000d0: 21ea 0ebf 49c3 ce3f 697e 1ebf 6df2 b0bf
000000e0: 297b 543f 30d1 be3d f21d aebe 05c7 dcbe
000000f0: c51e ca3f 7c2a 82be ba9b c4bf 7286 693f
00000100: cae5 d33d 923a 8bbe 377e 94be 41fe b33f
00000110: f5c9 8f3d 0f21 d8bf f51b 773f d73a e23d
00000120: e7ec 47be 6140 0ebe 8174 8f3f 1568 a13e
00000130: e300 e9bf 4e28 793f 446b 5a3e bf75 f3bd
00000140: c0ca 3c3b d52e 473f 7ecf 4d3f 09bb e4bf
00000150: c7fb 733f 2873 563e d836 48be f359 e6bd
00000160: 6f5c 923f b2bc 303f 8a99 d9bf 6bce 693f
00000170: 13f0 4d3e 4c4f 89be bd1c 66be c79e ba3f
00000180: 92fd f83e 8375 cabf 1756 5c3f bc1f 423e
00000190: 810f adbe a35a abbe eb38 d93f c4a0 4f3e
000001a0: 0047 b8bf d4cf 493f 8f8f 323e f513 ccbe
000001b0: 9eee debe 526e eb3f 6f0f 04be 84bc a4bf
000001c0: 93b1 333f d449 1f3e ec91 e7be 546c 07bf
000001d0: a6d7 ef3f 9e4b fabe 7a71 91bf 8bec 193f
000001e0: 2740 093e 147f febe 87c2 1cbf 077a e63f
000001f0: d43c 59bf cc5f 7fbf c249 fa3e df53 e23d
00000200: e318 08bf 46bc 2ebf 5775 d03f 56d3 96bf
00000210: 1fbb 61bf 1d84 da3e 268e 1a3e 9b60 1dbf
00000220: 9313 2abf 6133 da3f f268 a4bf ff2b 03bf
00000230: 8b70 013f a2cb 343e 0995 15bf 7b2f 1dbf
00000240: e560 f13f 94be 82bf 04c7 16bf 405c 183f
00000250: b345 513e 114f 0bbf b4aa 0dbf 097e 0140
00000260: 2a53 2ebf 5a6b 36bf 27d0 2d3f cdcb 6c3e
00000270: 2b1f ffbe 1500 f9be 9be5 0440 886d a2be
00000280: 2894 5abf ca80 403f f9d6 813e a80b e4be
00000290: 1c8d d3be ca27 0240 522d 203d 0782 80bf
000002a0: 3ba7 503f b978 8b3e 3af0 c5be fa72 abbe
000002b0: 7576 f33f 9b11 bd3e 26e1 93bf 5eed 5d3f
000002c0: be77 933e 56e6 a3be b1cc 7fbe 3cd7 d73f
000002d0: 4743 2a3f 1c91 a6bf 53c8 673f 422d 993e
000002e0: ac00 80be 15b4 25be 5a0d b33f f76f 663f
000002f0: 61fd b6bf cb03 6f3f 6c16 9d3e 602a 36be
00000300: 42f8 93bd 9cbc 873f 9cf0 873f 8d41 c4bf
00000310: bd0d 683f 947f cd3e 33d3 e5bd 84d4 b03a
00000320: 4f90 3a3f bf9b b53f 4f07 acbf f9eb 633f
00000330: e395 cb3e 2677 3fbe ceef 94bd 6895 8c3f
00000340: ebb4 aa3f e80c a2bf 64ca 5e3f 4842 c83e
00000350: a259 86be 256a 17be ca60 b83f f3d8 953f
00000360: 13de 94bf 47a0 553f 159f c13e 7234 aabe
00000370: 6bea 60be 428a dd3f 775b 723f b3d4 84bf
00000380: 1449 4a3f 0a1a b93e 87ae ccbe 7f19 94be
00000390: c303 fb3f e28e 2a3f aa47 65bf daab 3c3f
000003a0: 8431 ae3e 53dc ecbe 895b b6be c4a1 0740
000003b0: ae48 ae3e 1fe3 3ebf 39df 2c3f efb7 a13e
000003c0: 61ee 04bf 4ee9 d5be 35a9 0c40 fd14 98bb
000003d0: 18e8 17bf 4b1f 1b3f 9540 933e 820f 12bf
000003e0: 1770 f3be 146d 0c40 b3e9 b9be ce79 e4be
000003f0: b277 073f 3caf 823e bd2a 1dbf b6de 06bf
0.98967624 0.014447307 -0.117976375 0.004390812 0.7908158 0.06393857 -1.9555683 0.95165116
0.011322469 -0.21495031 -0.23147753 1.1290499 -0.14112581 -1.8352156 0.8420419 0.0074248468
-0.2950422 -0.44940266 1.3069054 -0.47732338 -1.6778854 0.68134165 0.002614991 -0.35602966
-0.63938224 1.2741295 -0.85672385 -1.5243406 0.47712538 -0.0017789631 -0.39670828 -0.7917382
1.0502437 -1.1824886 -1.4168551 0.44596374 0.047397465 -0.47334728 -0.7599465 1.2847048
-1.2869473 -1.145663 0.5928654 0.06458043 -0.44200656 -0.6700516 1.5116874 -0.97938514
-1.2465326 0.72173136 0.0801412 -0.3965323 -0.55826 1.6153346 -0.61911637 -1.3823982
0.8300043 0.09317243 -0.3400722 -0.4312059 1.579064 -0.25423038 -1.5360024 0.9122077
0.10346563 -0.27193123 -0.29002544 1.4061967 0.07020942 -1.6885089 0.96527034 0.11046379
-0.19523965 -0.13891746 1.1207429 0.3152472 -1.8203396 0.97327125 0.21329981 -0.11887693
0.0028807372 0.77805835 0.8039473 -1.7869579 0.95306057 0.20942366 -0.19552171 -0.11247625
1.1434458 0.69037926 -1.6999981 0.91330594 0.20111112 -0.2681831 -0.224719 1.4579705
0.4863096 -1.5817112 0.8606886 0.18957418 -0.3380089 -0.33467588 1.6970495 0.20276171
-1.4396667 0.78832746 0.17437576 -0.39858976 -0.43541425 1.8393042 -0.12896512 -1.287003
0.7019283 0.15555507 -0.45228517 -0.5289967 1.8737686 -0.48885816 -1.1362755 0.6012656
0.13403378 -0.49706328 -0.61234325 1.800599 -0.8485844 -0.9975555 0.48884398 0.110511534
-0.53162974 -0.6825603 1.6285809 -1.1783245 -0.8817615 0.4267892 0.15093288 -0.61475533
-0.6643612 1.704693 -1.2844527 -0.5123901 0.5056235 0.17655805 -0.58430535 -0.61400574
1.8857695 -1.021441 -0.58897424 0.5951576 0.20436744 -0.5441752 -0.553386 2.0233176
-0.6809565 -0.71257555 0.6789574 0.23124619 -0.49828467 -0.48632875 2.076514 -0.3172419
-0.8538232 0.75196517 0.25359324 -0.44540143 -0.41318595 2.0336785 0.03910572 -1.0039681
0.81505173 0.27240542 -0.3865984 -0.33486158 1.9020525 0.36927494 -1.1553085 0.8669032
0.28802294 -0.3201167 -0.24980427 1.6862559 0.6650891 -1.3013034 0.90540045 0.2991734
-0.25000513 -0.16181977 1.398845 0.90014595 -1.4296075 0.9336516 0.3068117 -0.17789602
-0.07225086 1.0604434 1.0620303 -1.5332505 0.9064596 0.40136397 -0.11221924 0.0013491069
0.7287645 1.4188155 -1.343973 0.8903194 0.39762792 -0.18697795 -0.072723016 1.0983095
1.3336462 -1.2660189 0.87027574 0.3911307 -0.2624026 -0.14786585 1.4404538 1.1706833
-1.1630272 0.8344769 0.37816682 -0.33243138 -0.21964423 1.7307818 0.94670814 -1.0377411
0.7901776 0.3615268 -0.39976904 -0.28925702 1.9610523 0.6662427 -0.89562476 0.73699725
0.34022152 -0.46261844 -0.3561671 2.1192484 0.34039825 -0.7456531 0.6752811 0.31585643
-0.5192624 -0.4177956 2.1978276 -0.004641174 -0.5933852 0.60594624 0.2876021 -0.57054913
-0.47546455 2.1941576 -0.3631111 -0.4462418 0.52917016 0.25524318 -0.6139334 -0.5268358
