trained_models/dtu_trained_cameras_37/2020/checkpoints/CamParameters/2000.pth (torch_old, 1839 bytes, 1 tensors)

weight f4 [49, 7]
0	0x3f7de554	0.9917805
1	0x3cd2f662	0.02575225
2	0xbe0219b9	-0.12705125
3	0x3be58b9a	0.007005167
4	0x3f61453e	0.8799628
5	0x3e82f694	0.2557875
6	0xc031c20f	-2.7774694
7	0x3f72e6d1	0.9488345
8	0x3cc92ebf	0.024558423
9	0xbe662493	-0.2247489
10	0xbe68d30c	-0.22736758
11	0x3fa89f49	1.317361
12	0x3afb9187	0.0019193151
13	0xc027527e	-2.61441
14	0x3f584a49	0.8448835
15	0x3c9ea28b	0.019364616
16	0xbe9c3dfe	-0.30516046
17	0xbee4cd85	-0.4468805
18	0x3fc4bc48	1.5369959
19	0xbedc676f	-0.43047664
20	0xc01ae81a	-2.4204164
21	0x3f2e2885	0.6803058
22	0x3c0b1065	0.0084877955
23	0xbeb9d1ea	-0.36292964
24	0xbf226fa2	-0.6345159
25	0x3fbd45fe	1.4786985
26	0xbf6efc03	-0.9335329
27	0xc00f527d	-2.2394097
28	0x3ef262fb	0.4734114
29	0x3b392f17	0.0028256827
30	0xbecce2b2	-0.40016705
31	0xbf48057a	-0.78133357
32	0x3f98811a	1.1914399
33	0xbfaba14f	-1.3408602
34	0xc0066ef6	-2.1005225
35	0x3ee3304f	0.44372794
36	0x3d534004	0.051574722
37	0xbef54028	-0.4790051
38	0xbf409ad3	-0.75236243
39	0x3fbc3fff	1.470703
40	0xbfbb8fb0	-1.4653225
41	0xbfe0eb99	-1.7571899
42	0x3f182a1c	0.59439254
43	0x3d8fb4b5	0.07016889
44	0xbee706fb	-0.45122513
45	0xbf2ac356	-0.6670431
46	0x3fe112af	1.7583827
47	0xbf8aaa1a	-1.0833161
48	0xbff10716	-1.8830287
49	0x3f388f14	0.7209332
50	0x3db2f41a	0.08737965
51	0xbece2d41	-0.402689
52	0xbf0da6cc	-0.55332637
53	0x3ff1e7d0	1.8898869
54	0xbf207d80	-0.626915
55	0xc003af80	-2.0575867
56	0x3f534a6a	0.8253542
57	0x3dd0a3f8	0.101875246
58	0xbeb05f84	-0.34447873
59	0xbed95acd	-0.42452088
60	0x3fec516d	1.8462349
61	0xbe27306d	-0.16327067
62	0xc00fc5f0	-2.2464561
63	0x3f68bf0f	0.9091653
64	0x3de815c7	0.11332279
65	0xbe8f14f8	-0.27945685
66	0xbe92115d	-0.28528872
67	0x3fd1d200	1.6392212
68	0x3e77eeed	0.24212237
69	0xc01b7d0e	-2.4295077
70	0x3f767fe4	0.96288896
71	0x3df5e2d1	0.120061524
72	0xbe51c4e6	-0.20485267
73	0xbe0a4855	-0.13504155
74	0x3fa5974e	1.29368
75	0x3f0bd176	0.5461649
76	0xc025f48f	-2.5930517
77	0x3f73aed3	0.95188636
78	0x3e59aca7	0.21257268
79	0xbe03c047	-0.12866317
80	0x3bc7d4b3	0.006098354
81	0x3f62049c	0.88288283
82	0x3f8f504e	1.1196382
83	0xc0243a6d	-2.566066
84	0x3f718cdd	0.94355565
85	0x3e5cb0a4	0.21551758
86	0xbe4ff0d8	-0.20306718
87	0xbddcac1d	-0.107750155
88	0x3fa8021f	1.3125647
89	0x3f7e8e55	0.9943593
90	0xc01c5435	-2.4426396
91	0x3f68e244	0.90970254
92	0x3e55fff0	0.20898414
93	0xbe8c816c	-0.2744249
94	0xbe6196d3	-0.22030191
95	0x3fd7e584	1.6866918
96	0x3f3e942e	0.74444854
97	0xc012f90c	-2.2964506
98	0x3f5bd24d	0.8586777
99	0x3e49834c	0.19678992
100	0xbeafb26c	-0.34315813
101	0xbea8c32d	-0.32961407
102	0x3ffcf76d	1.9763008
103	0x3ec8be23	0.39207563
104	0xc00804ee	-2.125301
105	0x3f4930fe	0.7859038
106	0x3e38a670	0.18032241
107	0xbece1a21	-0.4025431
108	0xbedc08be	-0.4297542
109	0x40098b85	2.1491406
110	0xbcad4633	-0.021151638
111	0xbff8855c	-1.9415698
112	0x3f336f7c	0.70091987
113	0x3e250783	0.16116147
114	0xbeea46dc	-0.45757186
115	0xbf06037c	-0.52349067
116	0x400c5664	2.1927729
117	0xbef05717	-0.46941444
118	0xbfe08973	-1.7541946
119	0x3f1986bc	0.59971213
120	0x3e0edbdc	0.13951057
121	0xbf000585	-0.5000842
122	0xbf1ae5f7	-0.6050715
123	0x40069d98	2.1033688
124	0xbf68b514	-0.90901303
125	0xbfcb3ca6	-1.5877883
126	0x3ef782e0	0.48342037
127	0x3deacb98	0.11464614
128	0xbf064cad	-0.5246075
129	0xbf2b2297	-0.66849655
130	0x3ff2ea9f	1.8977851
131	0xbfa7d474	-1.311171
132	0xbfbc1231	-1.4693052
133	0x3ed00e06	0.406357
134	0x3e18351e	0.14864013
135	0xbf1c35e3	-0.61019725
136	0xbf27a324	-0.6548331
137	0x3ff8f267	1.9448975
138	0xbfc01ef2	-1.5009444
139	0xbf7d8f1e	-0.99046504
140	0x3f009049	0.5022016
141	0x3e37fdab	0.1796786
142	0xbf14527b	-0.57938355
143	0xbf1a365a	-0.60239184
144	0x400d4075	2.2070591
145	0xbf8f053c	-1.1173472
146	0xbf8d5383	-1.1041111
147	0x3f18422d	0.59475976
148	0x3e55502c	0.20831364
149	0xbf0b3fb2	-0.54394066
150	0xbf0bde3e	-0.5463599
151	0x40179f09	2.3690817
152	0xbf32df7a	-0.6987225
153	0xbfa0a06d	-1.2548958
154	0x3f2de71f	0.6793079
155	0x3e7023cb	0.23451154
156	0xbf007940	-0.5018501
157	0xbef6f7c8	-0.48235917
158	0x401b2c43	2.4245765
159	0xbe8697a7	-0.26287577
160	0xbfb5c321	-1.4200174
161	0x3f406250	0.7515001
162	0x3e8369ce	0.2566666
163	0xbee4da05	-0.44697586
164	0xbed12796	-0.40850514
165	0x4017b8ad	2.3706467
166	0x3e36c785	0.17849548
167	0xbfce3d69	-1.6112491
168	0x3f508276	0.8144907
169	0x3e8d302d	0.27575818
170	0xbec829f4	-0.39094508
171	0xbea94306	-0.33058947
172	0x400d981d	2.2124093
173	0x3f13c161	0.5771695
174	0xbfe4aa20	-1.7864418
175	0x3f5d1a8b	0.86368626
176	0x3e9502a9	0.29103592
177	0xbea6124b	-0.3243583
178	0xbe7b1f9c	-0.24523777
179	0x3ff9cdff	1.951599
180	0x3f70b743	0.94029635
181	0xbffb55ca	-1.9635556
182	0x3f66ccf6	0.90156496
183	0x3e9badb9	0.30405977
184	0xbe842e87	-0.25816748
185	0xbe21e252	-0.1580899
186	0x3fce7b76	1.6131427
187	0x3f9d4000	1.2285156
188	0xc006a5dd	-2.1038735
189	0x3f6ebea2	0.9325963
190	0x3e9dae67	0.3079712
191	0xbe4048da	-0.1877779
192	0xbd8ef388	-0.06980044
193	0x3f9b535d	1.2134815
194	0x3fb528df	1.4153098
195	0xc0106ad6	-2.2565207
196	0x3f6919ca	0.91054976
197	0x3ecb3574	0.3968922
198	0xbdf9e8a3	-0.12202575
199	0x3a94ff61	0.0011367613
200	0x3f505a98	0.81388235
201	0x3fea95f9	1.8327018
202	0xc00432fa	-2.0656114
203	0x3f658542	0.8965646
204	0x3eca1d21	0.3947535
205	0xbe48c6e7	-0.19607125
206	0xbd967fbd	-0.07348583
207	0x3fa063e7	1.2530488
208	0x3fdbf75a	1.7184861
209	0xbffa8f77	-1.9575032
210	0x3f603adf	0.8758983
211	0x3ec3f532	0.38273007
212	0xbe89270b	-0.267876
213	0xbe17a897	-0.14810406
214	0x3fd47c4c	1.6600432
215	0x3fc119ac	1.508596
216	0xbfedf054	-1.8588967
217	0x3f563664	0.83676744
218	0x3ec1424a	0.37745887
219	0xbead37f0	-0.3383174
220	0xbe5f4879	-0.2180499
221	0x4000053f	2.0003202
222	0x3fa0c90b	1.2561353
223	0xbfd44df0	-1.6586285
224	0x3f4a7f13	0.7910015
225	0x3eb96fd2	0.36218125
226	0xbecdcc19	-0.40194777
227	0xbe9257b1	-0.28582528
228	0x401134a4	2.268838
229	0x3f6e6c16	0.93133676
230	0xbfbe0831	-1.484625
231	0x3f3c40a9	0.73536164
232	0x3eada4f9	0.33914927
233	0xbeeee3f2	-0.46658283
234	0xbeb479f8	-0.35249305
235	0x401e291b	2.4712589
236	0x3f053533	0.520343
237	0xbfa54f2b	-1.2914785
238	0x3f2e7138	0.6814151
239	0x3ea475de	0.32121176
240	0xbf03b177	-0.51442665
241	0xbed34a0d	-0.41267434
242	0x4023aa6e	2.5572772
243	0x3e23057f	0.15920065
244	0xbf91f0ba	-1.1401589
245	0x3f1b911f	0.6076831
246	0x3e921a9a	0.2853592
247	0xbf11d7e7	-0.56970066
248	0xbef1a678	-0.47197318
249	0x40248ba8	2.571024
250	0xbeaa178a	-0.33221084
251	0xbf74ac0e	-0.95575035
252	0x3f080ecd	0.53147584
253	0x3e83b5c6	0.2572462
254	0xbf1dc442	-0.6162759
255	0xbf05fca7	-0.5233864
