trained_models/dtu_trained_cameras_63/2020/checkpoints/CamParameters/2000.pth (torch_old, 1839 bytes, 1 tensors)

weight f4 [49, 7]
0.9933497 0.013541382 -0.12649387 0.0026972955 1.3835336 0.21691738 -3.239455 0.9492497
0.01251051 -0.21911076 -0.23075552 1.8596853 -0.07387902 -3.0577593 0.8429443 0.0112502435
-0.3001098 -0.4474756 2.1293056 -0.55828774 -2.8216674 0.68262714 0.009983584 -0.36013573
-0.63569045 2.0994031 -1.1077632 -2.5992277 0.47755277 0.0058370465 -0.39565918 -0.7844302
1.7640389 -1.5829688 -2.4449956 0.4477549 0.05449048 -0.47415093 -0.7543249 2.1094825
-1.7403677 -2.0404415 0.59405 0.072677635 -0.44322726 -0.66408396 2.445446 -1.2743295
-2.1867783 0.72236973 0.08557455 -0.3991981 -0.55438966 2.5812962 -0.75434893 -2.3864644
0.8287771 0.096814916 -0.3438948 -0.42801282 2.5249057 -0.22914445 -2.609431 0.909721
0.10520894 -0.27703235 -0.2882633 2.27286 0.23785774 -2.8342586 0.9604214 0.111062355
-0.20044693 -0.13865204 1.8550303 0.59501517 -3.0314598 0.968984 0.21070154 -0.12476136
0.0011753006 1.355731 1.2993572 -2.9932365 0.9477119 0.20699348 -0.20104533 -0.11264514
1.8915517 1.1302662 -2.8593376 0.9098212 0.20026217 -0.27290854 -0.22383188 2.3447502
0.83508706 -2.6805172 0.85709995 0.18962759 -0.34055868 -0.33153227 2.6885977 0.4282221
-2.4726303 0.7869471 0.17651871 -0.4009744 -0.43187398 2.8972986 -0.04779482 -2.2459204
0.70288235 0.15973577 -0.4548261 -0.5253503 2.9531157 -0.5661822 -2.0229542 0.60156935
0.13894455 -0.4963072 -0.60664946 2.8497894 -1.0881442 -1.8271258 0.49098742 0.116396055
-0.52842003 -0.67689604 2.6029623 -1.5637016 -1.6674883 0.41151842 0.15188906 -0.60315186
-0.65687364 2.6798804 -1.770187 -1.1248262 0.50836253 0.18034627 -0.58089083 -0.60962784
2.972599 -1.3384788 -1.2444959 0.59789634 0.20878592 -0.54357916 -0.54882777 3.1708825
-0.8350983 -1.4121723 0.6801857 0.23317152 -0.49928653 -0.48331088 3.237273 -0.31854817
-1.6174037 0.7526011 0.25433597 -0.44703543 -0.41076773 3.1717386 0.19596481 -1.8387363
0.814093 0.27212486 -0.38888705 -0.3321205 2.9804394 0.67437124 -2.0587459 0.8649718
0.28598318 -0.3247436 -0.24861039 2.6745048 1.0914096 -2.2716882 0.90599793 0.29700825
-0.25730878 -0.16255593 2.2661104 1.429813 -2.4624028 0.93449616 0.3039446 -0.18618232
-0.07372309 1.779521 1.6654747 -2.619573 0.90791917 0.39772323 -0.11680425 -0.00023101077
1.2743268 2.198906 -2.3628805 0.8934548 0.39349803 -0.19839619 -0.0753911 1.8541781
2.0511394 -2.2346647 0.8682759 0.3853185 -0.27056536 -0.14844047 2.339534 1.8141214
-2.0790844 0.8321491 0.37423915 -0.3379632 -0.21875891 2.7458837 1.495395 -1.8877378
0.7947346 0.36148974 -0.403462 -0.28898785 3.0612876 1.1040885 -1.6895677 0.73841417
0.33947173 -0.46273267 -0.35414347 3.2914252 0.6370885 -1.4736204 0.6775677 0.3155768
-0.51890725 -0.4158094 3.4086092 0.13493569 -1.2512869 0.60945123 0.28874218 -0.5689019
-0.47314623 3.406657 -0.37947243 -1.0391966 0.53396225 0.25688612 -0.6112043 -0.525658
00000000: 2a4c 7e3f acdc 5d3c 9c87 01be 1cc5 303b
00000010: a117 b13f 971f 5e3e 3b53 4fc0 0702 733f
00000020: e2f8 4c3c 925e 60be 2d4b 6cbe 2b0a ee3f
00000030: e24d 97bd 54b2 43c0 33cb 573f f152 383c
00000040: fea7 99be 861b e5be 8b46 0840 f2eb 0ebf
00000050: 3396 34c0 a7c0 2e3f 3092 233c b663 b8be
00000060: 9cbc 22bf 9f5c 0640 2fcb 8dbf bf59 26c0
00000070: cc81 f43e b244 bf3b d793 cabe 6bd0 48bf
00000080: 07cc e13f b99e cabf cf7a 1cc0 2140 e53e
00000090: 6931 5f3d e9c3 f2be 701b 41bf c301 0740
000000a0: 5ec4 debf 9896 02c0 a913 183f 03d8 943d
000000b0: afee e2be 6801 2abf 3082 1c40 3b1d a3bf
000000c0: 2df4 0bc0 39ed 383f b641 af3d b263 ccbe
000000d0: 7bec 0dbf f533 2540 031d 41bf d5bb 18c0
000000e0: bc2a 543f e646 c63d fb12 b0be 7f24 dbbe
000000f0: 0e98 2140 d8a4 6abe eb00 27c0 7ae3 683f
00000100: c977 d73d 2fd7 8dbe 3f97 93be 8a76 1140
00000110: fb90 733e 7e64 35c0 2dde 753f a974 e33d
00000120: f641 4dbe cdfa 0dbe a271 ed3f ea52 183f
00000130: 7003 42c0 560f 783f 25c2 573e e282 ffbd
00000140: 8b0c 9a3a 9888 ad3f 5651 a63f 3091 3fc0
00000150: 3f9d 723f 19f6 533e d4de 4dbe 7fb2 e6bd
00000160: 5e1e f23f 90ac 903f 63ff 36c0 0bea 683f
00000170: 8711 4d3e abba 8bbe 2f34 65be 6310 1640
00000180: 44c8 553f 988d 2bc0 e76a 5b3f bc2d 423e
00000190: b55d aebe 99be a9be fc11 2c40 ed3f db3e
000001a0: 933f 1ec0 5d75 493f 52c1 343e 844c cdbe
000001b0: 961e ddbe 576d 3940 80c4 43bd 29bd 0fc0
000001c0: 19f0 333f c691 233e f7de e8be 5b7d 06bf
000001d0: d9ff 3c40 51f1 10bf 1578 01c0 7300 1a3f
000001e0: 7b47 0e3e fa1b febe 614d 1bbf f362 3640
000001f0: 4f48 8bbf 42df e9bf b462 fb3e 0e61 ee3d
00000200: 8946 07bf 0f49 2dbf ef96 2640 6027 c8bf
00000210: 4270 d5bf 8bb2 d23e ce88 1b3e 2968 1abf
00000220: df28 28bf 2983 2b40 7d95 e2bf 4efa 8fbf
00000230: 0c24 023f b1ac 383e 43b5 14bf 9210 1cbf
00000240: 103f 3e40 4653 abbf a44b 9fbf bc0f 193f
00000250: facb 553e 0128 0bbf fa7f 0cbf bdef 4a40
00000260: 01c9 55bf 10c2 b4bf a620 2e3f 84c4 6e3e
00000270: 7ca2 ffbe 8674 f7be 7b2f 4f40 bf18 a3be
00000280: 1607 cfbf 77aa 403f 5338 823e d4e1 e4be
00000290: 2650 d2be c4fd 4a40 00ab 483e b65b ebbf
000002a0: 6668 503f f353 8b3e 341c c7be b30b aabe
000002b0: 85bf 3e40 98a3 2c3f 7ec2 03c0 cb6e 5d3f
000002c0: 636c 923e cb44 a6be b993 7ebe 162b 2b40
000002d0: 4fb3 8b3f 5763 11c0 7bef 673f 7711 983e
000002e0: fabd 83be 1075 26be f407 1140 1d04 b73f
000002f0: 0298 1dc0 243b 6f3f a09e 9b3e 94a6 3ebe
00000300: 22fc 96bd 58c7 e33f 462e d53f 16a7 27c0
00000310: 646d 683f 61a2 cb3e 1137 efbd 7b3b 72b9
00000320: 241d a33f e0ba 0c40 6f39 17c0 74b9 643f
00000330: 9378 c93e 5f28 4bbe a666 9abd b555 ed3f
00000340: de45 0340 bf04 0fc0 5447 5e3f 7748 c53e
00000350: 8b87 8abe c700 18be edba 1540 2135 e83f
00000360: b80f 05c0 b907 553f 469c bf3e 8309 adbe
00000370: 5602 60be 8fbc 2f40 1a69 bf3f 64a1 f1bf
00000380: ba73 4b3f 2f15 b93e 9292 cebe 37f6 93be
00000390: 23ec 4340 c652 8d3f c143 d8bf b608 3d3f
000003a0: 3dcf ad3e 4ceb ecbe 4b52 b5be b6a6 5240
000003b0: 3b18 233f 989f bcbf 1475 2d3f 4893 a13e
000003c0: 1bd7 04bf f8e4 d4be a726 5a40 952c 0a3e
000003d0: 2b2a a0bf ff04 1c3f 04d6 933e 8ea3 11bf
000003e0: 3940 f2be ab06 5a40 364a c2be 6504 85bf
000003f0: c0b1 083f 9486 833e e377 1cbf 8691 06bf
