trained_models/dtu_trained_cameras_65/2020/checkpoints/CamParameters/2000.pth (torch_old, 1839 bytes, 1 tensors)

weight f4 [49, 7]
000000 57 06 80 3f 76 d6 7b 3c ae b8 f7 bd a8 27 84 3b
       1.0001935 0.015370956 -0.12095772 0.0040330477
000010 76 58 83 3f 11 6f 50 3e 98 09 2a c0 fe d7 72 3f
       1.0261371 0.20354868 -2.6568356 0.9486083
000020 33 5e 2b 3c 96 ee 5a be a5 44 6c be 49 82 ba 3f
       0.010459471 -0.21380076 -0.23073061 1.457101
000030 a4 22 94 bd 0f 96 1f c0 ca c0 58 3f 6e ea da 3b
       -0.0723317 -2.4935338 0.8466917 0.006680778
000040 e8 64 98 be 66 37 e7 be 5f 25 d9 3f 84 36 04 bf
       -0.29764485 -0.45159453 1.696453 -0.51645684
000050 e9 3b 12 c0 d1 3e 2e 3f 63 69 bb 3a 83 91 b7 be
       -2.2849066 0.680646 0.0014298375 -0.35853204
000060 84 b7 23 bf 8f e2 d3 3f da f2 82 bf 65 17 05 c0
       -0.639519 1.6553515 -1.0230362 -2.079553
000070 e0 f0 f2 3e a0 7e a0 b9 30 13 ca be 8e e0 48 bf
       0.47449398 -0.0003061192 -0.39467764 -0.78467643
000080 43 59 af 3f 25 5b b8 bf c6 e2 f8 bf aa 09 e5 3e
       1.3699116 -1.4402815 -1.9444206 0.44733936
000090 ff 82 41 3d 03 7c f2 be 0c 9a 42 bf 84 a2 d5 3f
       0.04724407 -0.47360238 -0.76016307 1.6690221
0000a0 a1 dd c9 bf a9 ae cb bf f4 5b 17 3f 2b b6 84 3d
       -1.5770761 -1.5912677 0.59124684 0.06480058
0000b0 60 49 e3 be 80 07 2b bf 76 ab fc 3f ee 02 97 bf
       -0.44391918 -0.6680832 1.9739826 -1.1797769
0000c0 e2 05 db bf 0e 59 39 3f 8c aa a3 3d 0b 57 cc be
       -1.711117 0.7240151 0.079915136 -0.3991016
0000d0 68 5e 0f bf 5a 9d 06 40 98 fc 33 bf 8a b5 f2 bf
       -0.5600343 2.103354 -0.703073 -1.8961651
0000e0 15 ba 54 3f 70 22 bd 3d 59 dd ae be c8 e4 dc be
       0.8309644 0.09235084 -0.3415325 -0.43143296
0000f0 21 84 03 40 17 06 66 be fb 60 06 c0 d9 7e 6a 3f
       2.0549395 -0.2246326 -2.0996692 0.91599804
000100 07 9b d2 3d 3c 92 8c be 84 1a 95 be 43 6d ea 3f
       0.10283475 -0.27455318 -0.29121792 1.8314594
000110 56 c8 4d 3e 70 45 13 c0 ad 92 77 3f 14 b1 e1 3d
       0.20095953 -2.3011131 0.96708184 0.11020103
000120 3a 12 49 be 97 bb 0e be 22 41 ba 3f b9 18 07 3f
       -0.19635859 -0.13938747 1.4551127 0.527721
000130 9c 95 1e c0 9c 45 79 3f 24 02 5c 3e f6 80 f5 bd
       -2.4778814 0.9737184 0.21485192 -0.11987488
000140 2e 86 1b 3b a5 d5 80 3f ae 37 97 3f 6f f6 1b c0
       0.00237311 1.0065199 1.1813867 -2.436916
000150 53 b3 74 3f 51 64 56 3e ef 3b 4b be 2d ae e8 bd
       0.9558613 0.20936705 -0.19847082 -0.113613464
000160 4f 46 bf 3f 85 62 82 3f 44 7b 14 c0 d5 7f 6a 3f
       1.4943331 1.0186316 -2.3200235 0.91601306
000170 61 b1 4d 3e bf 55 8a be 78 36 67 be 0e 48 f3 3f
       0.20087196 -0.27018544 -0.22579372 1.9006364
000180 f6 fa 3f 3f 27 85 0a c0 b0 62 5c 3f 44 93 41 3e
       0.7499231 -2.164377 0.86088085 0.18903834
000190 7e 40 ad be 4c 08 ab be b6 92 0d 40 13 17 c3 3e
       -0.33838266 -0.33404768 2.2120795 0.38103542
0001a0 bd 32 fd bf 52 76 4a 3f 57 d5 31 3e a6 34 ce be
       -1.9781109 0.7908679 0.17366539 -0.40274543
0001b0 b4 b4 df be ed d1 19 40 c6 ae 87 bd ee 58 e2 bf
       -0.43692553 2.4034379 -0.06625132 -1.7683389
0001c0 55 56 33 3f e6 8f 1d 3e 6d e4 e8 be d9 63 07 bf
       0.7005361 0.15386924 -0.45486775 -0.5288673
0001d0 e7 66 1c 40 16 c3 0a bf 04 89 c8 bf 75 4e 1a 3f
       2.4437807 -0.5420393 -1.5666814 0.60275966
0001e0 ad 93 0a 3e 34 76 fe be 3a 71 1c bf c0 aa 16 40
       0.13532896 -0.49699557 -0.6111027 2.3541718
0001f0 a7 67 7e bf 4c a4 b2 bf 22 9e fb 3e af 96 e1 3d
       -0.9937691 -1.395639 0.49144083 0.11015069
000200 66 68 07 bf 74 bf 2e bf 4c 8c 07 40 f5 3c b6 bf
       -0.52893674 -0.68260884 2.117938 -1.4237353
000210 2f ee a0 bf a5 1c d0 3e d4 ec 16 3e 29 8e 1b bf
       -1.2572688 0.40646854 0.1473878 -0.60763794
000220 fb 76 27 bf b8 87 0c 40 a9 ce ce bf aa 59 39 bf
       -0.65415925 2.1957836 -1.6156818 -0.7240244
000230 26 e3 01 3f 7f 6b 36 3e 4a 95 15 bf 2c a8 1c bf
       0.50737226 0.17814444 -0.5843092 -0.6119411
000240 46 11 1e 40 77 ff 9b bf 19 e1 5a bf ac c4 18 3f
       2.4698043 -1.2187337 -0.8549972 0.596751
000250 8a 31 51 3e 05 a5 0b bf 14 9e 0d bf 90 26 29 40
       0.20429054 -0.54548675 -0.55319333 2.6429787
000260 7c af 47 bf 1d 76 82 bf 9a a5 2d 3f ae 6c 6a 3e
       -0.7800214 -1.0192295 0.6783081 0.2289302
000270 f2 9c ff be b6 eb f8 be 82 60 2d 40 be a3 a0 be
       -0.49924427 -0.48617333 2.7090154 -0.31374925
000280 35 38 9a bf 2e b4 40 3f cc c2 80 3e 6c e5 e4 be
       -1.2048403 0.7527493 0.25148618 -0.44706285
000290 a6 da d3 be bb d8 29 40 db 73 1e 3e 6a cc b3 bf
       -0.41377753 2.6538532 0.15473883 -1.4046757
0002a0 ee f3 50 3f 45 24 8b 3e ef f1 c5 be 2c 1c ab be
       0.8162221 0.2717611 -0.38661143 -0.3341993
0002b0 c8 ab 1e 40 3b 13 1a 3f 27 a7 cd bf dc 14 5e 3f
       2.4792347 0.60185593 -1.6066636 0.8675058
0002c0 68 d2 92 3e a1 24 a4 be d8 f0 7f be 47 9a 0c 40
       0.28676152 -0.32059196 -0.24994218 2.1969163
0002d0 e7 35 7c 3f 7e 2d e6 bf ac d3 68 3f 0f 3b 99 3e
       0.9851975 -1.7982633 0.90947986 0.2992787
0002e0 5b b2 81 be 6f 5e 27 be ea e6 e9 3f 85 4b a5 3f
       -0.25331387 -0.16344617 1.8273594 1.2913672
0002f0 61 4e fb bf ca de 70 3f 88 48 9e 3e 23 f3 3b be
       -1.9633294 0.9408995 0.30914712 -0.18354468
000300 28 06 98 bd 5e 75 b2 3f 08 18 c1 3f d2 1a 06 c0
       -0.07423049 1.3942068 1.5085459 -2.095387
000310 83 35 67 3f ad e3 c8 3e 01 5b eb bd 4a 74 ca ba
       0.9031603 0.39236203 -0.11491967 -0.0015446034
000320 44 6a 75 3f cf a7 fa 3f 92 d5 ef bf 7a 8b 65 3f
       0.95865273 1.9582461 -1.8737051 0.8966595
000330 82 21 cb 3e e9 ba 43 be 37 a4 9a bd 70 46 b8 3f
       0.39674002 -0.1911427 -0.07550853 1.4396496
000340 4d 49 ed 3f ee d8 e0 bf bb a3 5f 3f 00 e3 c7 3e
       1.8537995 -1.7566202 0.8735921 0.39040375
000350 7e 34 87 be 42 98 18 be b5 40 f0 3f 7f df d2 3f
       -0.26407236 -0.14901832 1.8769747 1.6474456
000360 66 10 cf bf 67 c0 55 3f b7 c4 bf 3e 78 0e aa be
       -1.617688 0.8349671 0.3745477 -0.33214164
000370 a8 d6 61 be ac 4c 10 40 80 93 ac 3f 41 f5 ba bf
       -0.22054541 2.2546797 1.3482513 -1.4606096
000380 f8 57 4a 3f c5 c0 b7 3e aa 01 cc be 81 17 94 be
       0.7904048 0.3588926 -0.3984502 -0.28924182
000390 be 74 23 40 55 a2 7c 3f e7 e0 a2 bf 0c 45 3d 3f
       2.5540004 0.986852 -1.2724885 0.7393348
0003a0 a5 8e ad 3e ad f6 ed be 01 d6 b6 be 66 20 31 40
       0.33897892 -0.4647726 -0.35710147 2.7676024
0003b0 13 23 0e 3f 8c 87 88 bf 5d 3e 2d 3f 70 81 a0 3e
       0.5552227 -1.0666366 0.67673284 0.31348753
0003c0 10 d1 04 bf 5a 3d d6 be 05 83 37 40 4f d9 d2 3d
       -0.51881504 -0.41843683 2.8673718 0.102953546
0003d0 58 e8 5f bf a0 78 1b 3f fb 24 92 3e 3e d6 11 bf
       -0.87463903 0.60730934 0.2854384 -0.5696753
0003e0 cf 4f f3 be f1 50 37 40 b2 18 bb be 0b 08 2e bf
       -0.47521827 2.8643153 -0.3654228 -0.6798102
0003f0 27 2b 08 3f 20 44 82 3e 43 7e 1d bf 5e 2f 07 bf
       0.53190845 0.254426 -0.61520785 -0.5280665
