trained_models/dtu_trained_cameras_55/2020/checkpoints/CamParameters/2000.pth (torch_old, 1839 bytes, 1 tensors)

weight f4 [49, 7]
000000 c6 36 80 3f fe 4c 72 3c fb 4f f9 bd 8b 50 d0 3b
       1.0016716 0.014788864 -0.12173458 0.0063572577
000010 fc 3f 5f 3f 60 9a f2 3c c8 52 1d c0 92 09 73 3f
       0.8720701 0.029614627 -2.4581776 0.9493648
000020 cf 44 45 3c 0b a6 5c be 0e e6 69 be 1c f3 a3 3f
       0.012040331 -0.21547715 -0.22841665 1.2808566
000030 85 d6 5e be 38 e6 13 c0 56 16 58 3f 29 7f 09 3c
       -0.2176152 -2.3109264 0.8440908 0.008392134
000040 c0 65 97 be 4a 4a e5 be 07 61 bf 3f ac 4b 20 bf
       -0.29569817 -0.4478324 1.4951485 -0.62615466
000050 80 9f 07 c0 e5 c8 2e 3f 0f ff 96 3b f3 1b b6 be
       -2.11911 0.6827529 0.004608042 -0.355682
000060 f8 1b 23 bf 81 f7 ba 3f 67 37 8b bf cc 93 f7 bf
       -0.6371455 1.4606782 -1.0876282 -1.9341979
000070 cb 62 f4 3e 76 a6 a0 38 50 89 c9 be 04 3b 49 bf
       0.47731623 7.6604e-05 -0.39362574 -0.78605676
000080 73 f3 97 3f e5 cf bd bf d5 e4 e6 bf f1 de e4 3e
       1.187117 -1.4829069 -1.8038584 0.4470134
000090 dc fe 49 3d 65 77 f1 be a3 c1 41 bf 7e cf bc 3f
       0.04931532 -0.47161403 -0.7568609 1.4750822
0000a0 64 5f ce bf 0a 8c bc bf 94 c9 17 3f 77 9c 87 3d
       -1.6122861 -1.4730237 0.5929196 0.0662164
0000b0 5d 09 e1 be 16 75 2a bf 66 ee df 3f de e6 9d bf
       -0.43952456 -0.6658491 1.7494628 -1.233608
0000c0 14 3d cc bf 20 b5 39 3f 67 67 a7 3d 8a 1c cb be
       -1.595614 0.72542 0.08174019 -0.3967021
0000d0 4a d8 0e bf fe 94 ef 3f d8 be 4b bf 9a 50 e1 bf
       -0.5579878 1.8717344 -0.7958808 -1.7602723
0000e0 0a ff 54 3f be 59 c1 3d bd 19 ae be 4f cf db be
       0.8320166 0.09440945 -0.34004012 -0.429316
0000f0 e5 a5 e9 3f bd 01 b4 be 71 3b f9 bf 83 c2 69 3f
       1.8253752 -0.35157576 -1.9471265 0.91312426
000100 98 c7 d5 3d aa 7a 8b be 6d 4a 93 be 7e cd ce 3f
       0.1043846 -0.27242023 -0.2876772 1.6156461
000110 17 63 2d 3d f7 72 08 c0 cb 0c 77 3f ba 75 e3 3d
       0.042330828 -2.132017 0.96503896 0.11106439
000120 04 a4 48 be 10 f1 0b be 71 44 a2 3f 05 90 ad 3e
       -0.19593817 -0.13666177 1.2677137 0.3389894
000130 b7 c4 12 c0 9c ef 78 3f d8 09 5a 3e 0f c4 f5 bd
       -2.2932565 0.97240615 0.21292818 -0.12000286
000140 6c 98 8d 3b 89 7e 59 3f 82 56 6e 3f 56 3a 10 c0
       0.0043211486 0.849587 0.9310075 -2.2535605
000150 c5 bc 73 3f 76 4e 56 3e 73 d3 48 be 06 8f e2 bd
       0.95209914 0.20928368 -0.19611911 -0.11062436
000160 bc c4 a5 3f 71 38 4b 3f ef 5c 09 c0 aa 7d 6a 3f
       1.2950664 0.79383 -2.1462972 0.91598
000170 c4 89 4e 3e fb f2 89 be 71 0e 65 be 1c 9a d6 3f
       0.20169741 -0.26943192 -0.2236879 1.676578
000180 af 8d 0b 3f f6 10 00 c0 de 61 5c 3f 7f f6 42 3e
       0.54513067 -2.0010352 0.86086833 0.19039343
000190 a1 7e ac be ae e7 a9 be 03 97 fb 3f c2 db 54 3e
       -0.3369036 -0.3318457 1.965546 0.20786956
0001a0 02 41 ea bf 36 45 4a 3f 6e ed 33 3e 26 97 cb be
       -1.8301089 0.7901186 0.17571041 -0.39763755
0001b0 08 e3 dd be a5 fc 08 40 f2 34 48 be ab 9e d2 bf
       -0.43337274 2.1404202 -0.19551447 -1.6454672
0001c0 b3 36 34 3f fa 06 21 3e f3 13 e7 be 85 f5 06 bf
       0.70395964 0.15725318 -0.45132408 -0.52718383
0001d0 26 f2 0b 40 01 4a 22 bf 38 1a bb bf 51 49 1a 3f
       2.1866546 -0.6339417 -1.4617376 0.6026812
0001e0 47 0c 0b 3e a9 a7 fd be 15 27 1c bf 6c 70 06 40
       0.13578902 -0.49541977 -0.60997134 2.1006117
0001f0 7f 5e 89 bf e4 75 a5 bf 6c da fa 3e 47 12 e5 3d
       -1.0731963 -1.2926602 0.48994768 0.11185127
000200 5f 88 07 bf 5e 21 2e bf 8e 05 f2 3f 4c 26 bd bf
       -0.5294246 -0.68019664 1.8907945 -1.4777312
000210 84 77 93 bf a1 54 d1 3e 7d bc 16 3e 45 da 1c bf
       -1.1520848 0.4088488 0.1472034 -0.6127055
000220 2c 96 29 bf 24 55 f8 3f 30 3c d4 bf 8c 3f 2c bf
       -0.6624477 1.9400983 -1.6580868 -0.67284465
000230 7f e5 01 3f a8 16 36 3e e6 a8 14 bf 9a 5c 1c bf
       0.5074081 0.1778208 -0.5807022 -0.610788
000240 ef 30 0d 40 17 ec a3 bf 7e 60 4c bf a1 1f 19 3f
       2.2061117 -1.2806424 -0.79834735 0.59813887
000250 c0 58 53 3e 05 e4 0a bf d5 3e 0d bf bd d1 17 40
       0.20639324 -0.5425418 -0.55174 2.3721764
000260 73 45 5d bf 59 c9 72 bf fb 6a 2e 3f b0 f3 6d 3e
       -0.86434096 -0.9483848 0.6813199 0.2323749
000270 af 60 fe be 0e 47 f8 be 7c 95 1b 40 8b 39 d9 be
       -0.4968314 -0.4849171 2.4309988 -0.42426714
000280 2a 66 8f bf 11 51 41 3f 70 86 82 3e 1c 67 e3 be
       -1.1203053 0.7551432 0.25493193 -0.44414604
000290 2e b8 d2 be bf 0a 18 40 14 dc 39 3c 62 df a6 bf
       -0.41156143 2.375656 0.011343975 -1.3036921
0002a0 a9 21 51 3f d3 e5 8b 3e 36 07 c5 be 53 41 aa be
       0.81691986 0.2732378 -0.38482064 -0.33252963
0002b0 94 8a 0d 40 d0 5c d3 3e b0 62 be bf 20 34 5e 3f
       2.2115831 0.41281748 -1.4873867 0.86798286
0002c0 f5 67 93 3e 24 af a3 be 92 29 7e be 70 a2 f9 3f
       0.2879025 -0.3196956 -0.24820545 1.9502697
0002d0 ca c3 43 3f 66 c7 d4 bf 05 f5 67 3f da d1 98 3e
       0.76470625 -1.6623352 0.90608245 0.29847604
0002e0 24 52 80 be 20 a9 24 be f8 4d cd 3f a5 e0 85 3f
       -0.25062668 -0.16080141 1.6039419 1.0459181
0002f0 93 a7 e8 bf a4 d0 6f 3f 31 19 9d 3e 98 3d 38 be
       -1.817614 0.93677735 0.30683282 -0.17992246
000300 95 3e 93 bd 4a 0b 99 3f 85 ed 9e 3f 47 ce f8 bf
       -0.07189671 1.195657 1.2416235 -1.9437951
000310 25 4f 69 3f 4a 52 cc 3e cc ef ee bd 49 8f 0e 37
       0.9113639 0.39906532 -0.116668314 8.497221e-06
000320 c2 2e 4e 3f a6 96 d5 3f ad a7 dc bf ea 7e 66 3f
       0.80540097 1.6686599 -1.723867 0.90037405
000330 60 51 cc 3e 58 85 44 be 47 ca 98 bd 4c 07 a0 3f
       0.39905834 -0.19191492 -0.07460456 1.2502227
000340 6b 55 c8 3f f2 b9 cf bf 91 be 60 3f 6e fc c8 3e
       1.5651067 -1.6228621 0.8779078 0.3925509
000350 d3 25 88 be a5 dd 18 be 01 4f d4 3f 19 7e af 3f
       -0.26591358 -0.149283 1.658661 1.3710357
000360 c5 58 bf bf e2 f6 55 3f b6 29 c1 3e 66 fb a9 be
       -1.4948965 0.8357984 0.37727135 -0.33199614
000370 b1 07 60 be a9 54 00 40 16 6c 8d 3f 02 12 ac bf
       -0.21877934 2.0051672 1.104861 -1.3442996
000380 0e 25 4b 3f 9c 75 b9 3e 83 86 cc be aa da 93 be
       0.79353416 0.3622254 -0.39946374 -0.28877765
000390 b1 38 12 40 09 be 44 3f a4 fc 95 bf bc 3b 3d 3f
       2.2847102 0.7685247 -1.1717725 0.7391927
0003a0 b2 dc ae 3e df 87 eb be 37 25 b5 be 60 9d 1e 40
       0.34152752 -0.460021 -0.35379955 2.4783554
0003b0 ec 52 c4 3e c7 84 7d bf 03 96 2d 3f a8 8d a2 3e
       0.38344514 -0.9903073 0.67807025 0.317487
0003c0 74 45 04 bf cf b9 d4 be 6f 0b 25 40 22 ff 10 bd
       -0.5166848 -0.4154801 2.5788229 -0.035399564
0003d0 50 4a 4e bf f8 c8 1b 3f a9 c2 93 3e c4 2f 11 bf
       -0.8058214 0.6085353 0.2885945 -0.5671351
0003e0 c7 56 f2 be 6b f6 24 40 90 6e f3 be 31 d6 20 bf
       -0.4733183 2.5775402 -0.4754529 -0.6282683
0003f0 33 e9 08 3f 04 20 83 3e 4a 56 1c bf 49 0b 07 bf
       0.53480834 0.25610363 -0.61069167 -0.52751595
