trained_models/dtu_trained_cameras_69/2020/checkpoints/CamParameters/2000.pth (torch_old, 1839 bytes, 1 tensors)

weight f4 [49, 7]
00000000: e5e2 7d3f 60c0 643c ab74 fcbd 8147 4e3b
00000010: 08fe 553f 5d81 223d 9605 12c0 75a4 743f
00000020: fe59 3c3c e17c 61be d3e5 6ebe 4b63 9a3f
00000030: 0d1a 41be 9f46 09c0 dc31 573f 60cb 0c3c
00000040: e1f0 98be 185d e6be 8757 b33f 0c9b 0fbf
00000050: 990c fcbf b5c5 2d3f 5efe 9b3b 2ee1 b7be
00000060: 87a5 23bf 3baf ae3f b4a2 7bbf d14b e6bf
00000070: b9e9 f13e 86ca 2e3a ad30 cbbe 26d9 49bf
00000080: 5e14 8e3f 6f82 abbf 660c d7bf 0477 e43e
00000090: 1d23 4c3d a9b0 f4be 62a0 43bf e730 af3f
000000a0: 9a6e babf 2c6e b0bf e266 173f ec8e 883d
000000b0: fce2 e3be 35cb 2bbf 7798 cf3f a1ec 8ebf
000000c0: 579f bebf 50f8 383f 3b50 a83d 6560 cdbe
000000d0: 9c91 0fbf 76ad de3f e8c2 37bf 09d4 d1bf
000000e0: 823f 543f da08 c13d 314d b0be 1341 ddbe
000000f0: e7df d93f 4796 a1be ad86 e7bf 8506 693f
00000100: 4a02 d53d c029 8dbe 7c74 94be 7fa9 c13f
00000110: 06a8 3d3d 818e fdbf bf72 763f 5aae e13d
00000120: 88a9 4bbe 417e 0ebe 6546 993f ede8 a23e
00000130: 634d 08c0 1371 773f f2af 583e 2f94 fbbd
00000140: ef5c 113b f335 523f 8672 5c3f 3f26 06c0
00000150: 7cec 723f 29bd 553e 8362 4cbe e782 e6bd
00000160: 7ceb 9c3f a3fc 3b3f 1e78 ffbf e265 693f
00000170: 41f8 4d3e b583 8bbe 54bc 66be 1714 c93f
00000180: 214c 013f 5c50 eebf 2901 5c3f 6bea 423e
00000190: adf2 aebe 945e abbe 5392 ea3f f48e 453e
000001a0: 9de9 d9bf 7931 493f 041e 333e fc9f cdbe
000001b0: aa01 dfbe 1139 fe3f d5c4 35be c81d c4bf
000001c0: 8df4 323f e55c 203e 31be e8be a348 07bf
000001d0: 916d 0140 490e 13bf 00b7 aebf f13e 193f
000001e0: 8cef 0a3e da5e ffbe b792 1cbf 9259 f83f
000001f0: 7aa4 78bf cb28 9bbf a53c fa3e e420 e63d
00000200: e732 09bf 3893 2fbf 3f58 df3f b012 abbf
00000210: 52e6 8abf 0b88 cf3e 9ce9 153e a5ff 1cbf
00000220: 7990 29bf 47c2 e43f 0193 bfbf e52e 28bf
00000230: 51b7 003f a947 363e f935 15bf 3365 1cbf
00000240: 453b 0240 f311 94bf 4588 43bf a757 183f
00000250: ae76 523e 36e6 0bbf eadd 0dbf 2eb9 0b40
00000260: 31fe 48bf 217e 66bf 7e4b 2d3f 5a8e 6c3e
00000270: f816 00bf 6949 f9be 4f7a 0f40 1a81 c6be
00000280: dc08 87bf d408 403f 9fa2 813e 0d90 e5be
00000290: 80db d3be 39a7 0c40 7314 ab3b 8e29 9cbf
000002a0: c188 503f 3310 8c3e f57a c7be 7353 abbe
000002b0: 9b8b 0340 b9ae c23e eead b1bf 31e2 5b3f
000002c0: d31f 923e 9481 a4be d53b 7ebe b7f4 e83f
000002d0: 9a9b 333f 7694 c6bf 1f48 673f 353f 993e
000002e0: 9c38 82be 59af 25be 28e1 c03f d851 773f
000002f0: efad d8bf 6991 6d3f 4783 9c3e a93e 3abe
00000300: b466 93bd ed2c 913f 0ffd 923f cbb4 e7bf
00000310: 057f 673f 308a cd3e 1085 f1bd fdd0 c43a
00000320: ead7 443f 441e c63f 30f9 ccbf 515e 643f
00000330: c475 cc3e 0df4 45be aea0 95bd c2cc 963f
00000340: 4d75 b93f 2482 c1bf 03ef 5c3f f95a c73e
00000350: f85a 87be d647 15be 6a1b c63f 3f9a a23f
00000360: 07ad b2bf e28a 543f 4178 c03e fd1a abbe
00000370: 0d40 60be 0302 ef3f e6c0 813f 608f a1bf
00000380: a205 4a3f d602 b93e 1b8e cebe 9e67 94be
00000390: cbc9 0740 f49d 333f 3aee 8cbf 545e 3c3f
000003a0: f4e7 ad3e f358 edbe 7b24 b6be 539d 1240
000003b0: d82d b13e acac 70bf de9f 2c3f 9376 a13e
000003c0: ed3f 05bf ab10 d6be 0a15 1840 a630 1fbd
000003d0: 6d81 45bf 5eb5 1a3f 2e6d 933e bb3a 12bf
000003e0: 4733 f3be 0bd5 1740 64a1 ddbe cd41 1bbf
000003f0: a730 073f ab52 833e 3c88 1dbf defd 06bf
0.9917434 0.013961881 -0.1232694 0.0031475725 0.83590746 0.03967415 -2.281591 0.9556344
0.011496065 -0.22020294 -0.23329858 1.2061552 -0.18857594 -2.1449354 0.84060454 0.00859341
-0.29871276 -0.449929 1.4011086 -0.5609596 -1.9691344 0.678798 0.0047605475 -0.35913986
-0.6392445 1.3647226 -0.9829514 -1.7991887 0.4724863 0.00066677516 -0.39685574 -0.7884697
1.1099966 -1.339918 -1.6800659 0.44622052 0.049838174 -0.4779103 -0.764166 1.3686799
-1.4565003 -1.3783622 0.5914136 0.06667885 -0.44509113 -0.67106944 1.6218404 -1.1165963
-1.4892377 0.72253895 0.08218428 -0.40112606 -0.5608156 1.7396686 -0.7178178 -1.6392833
0.82909405 0.094255164 -0.34433892 -0.4321371 1.7021455 -0.31559965 -1.8087975 0.91025573
0.10400827 -0.27570915 -0.2899512 1.5129851 0.046302818 -1.9809114 0.9626884 0.11019583
-0.1988889 -0.1391535 1.1974608 0.31818333 -2.1297233 0.9665691 0.21160868 -0.12284123
0.0022180637 0.8211357 0.8611225 -2.0960844 0.94892097 0.2087294 -0.19959454 -0.112554364
1.2259364 0.7343237 -1.9958532 0.91171086 0.20114233 -0.27248922 -0.22532779 1.5709256
0.5050679 -1.8618274 0.8593927 0.19034736 -0.34169522 -0.33470595 1.8325905 0.19292814
-1.7024418 0.78591114 0.17491919 -0.4016112 -0.43555957 1.9861165 -0.17750867 -1.5321589
0.69904405 0.15660436 -0.45457605 -0.5284521 2.0223124 -0.5744367 -1.3649597 0.59861666
0.13567942 -0.49877053 -0.6116137 1.9402335 -0.9712597 -1.2121824 0.48874393 0.11236742
-0.53593296 -0.68584013 1.7448806 -1.3365078 -1.0851538 0.4053348 0.14639896 -0.6132758
-0.6623607 1.7871789 -1.4966737 -0.65696555 0.5027972 0.17800774 -0.5828548 -0.6109192
2.0348675 -1.1567978 -0.76379806 0.59508747 0.20553085 -0.5464815 -0.5541674 2.1831775
-0.78512865 -0.9003621 0.67693317 0.23101178 -0.5003505 -0.4868882 2.2418401 -0.38770372
-1.0549579 0.7501347 0.25319383 -0.44836465 -0.41378403 2.1977065 0.0052209436 -1.2200181
0.8145867 0.2735611 -0.38960996 -0.33462104 2.0553958 0.38023928 -1.3881204 0.85892016
0.28539905 -0.3213011 -0.24827512 1.8199681 0.70159304 -1.5514057 0.90344423 0.29931036
-0.25433815 -0.16180171 1.5068712 0.9660926 -1.692808 0.92800003 0.30568907 -0.18187965
-0.071973234 1.1341835 1.1483477 -1.8102049 0.9042819 0.4014449 -0.11792958 0.0015015897
0.7689196 1.5477986 -1.6013546 0.89206415 0.39933598 -0.19331379 -0.07306038 1.1781237
1.4488922 -1.5117841 0.863022 0.38936594 -0.2643659 -0.14578184 1.5477116 1.2703322
-1.3959054 0.8302442 0.37591746 -0.33419028 -0.21899433 1.8672489 1.0136993 -1.262188
0.78914845 0.36134976 -0.40342793 -0.28985304 2.1216915 0.7016289 -1.1010201 0.73581433
0.3396603 -0.46356925 -0.35574707 2.2908523 0.34605289 -0.94013476 0.6743144 0.31535777
-0.5205067 -0.41809592 2.3762841 -0.038864754 -0.77150613 0.60432994 0.28794235 -0.57120866
-0.4750006 2.372378 -0.43287194 -0.6064728 0.5280861 0.25649008 -0.61536 -0.5273112
