trained_models/dtu_trained_cameras_114/2020/checkpoints/CamParameters/2000.pth (torch_old, 2259 bytes, 1 tensors)

weight f4 [64, 7]
000000 7b 79 81 3f 17 f4 62 3c 97 0a fe bd 67 c8 48 3b
       1.0115198 0.013852141 -0.124043636 0.0030637027
000010 47 63 48 3f 3e 5b 62 3d 9e d8 e1 bf c6 c3 74 3f
       0.78276485 0.055262797 -1.7644231 0.95611227
000020 0d 1e 34 3c 13 38 5f be 8c f9 6e be 8f 6f 87 3f
       0.010993493 -0.21798734 -0.23337382 1.058092
000030 32 f1 e9 bd 9c 0d d5 bf e6 79 57 3f cf e1 ea 3b
       -0.114229575 -1.6644778 0.8417038 0.0071680318
000040 de 96 97 be db 69 e6 be a6 e3 99 3f 14 38 c9 be
       -0.2960729 -0.45002636 1.2022598 -0.39300597
000050 1a 6d c4 bf dd e5 2d 3f b0 33 99 3b 73 3b b7 be
       -1.5345795 0.6792887 0.004675351 -0.35787544
000060 81 67 23 bf 48 88 97 3f f5 fc 34 bf 73 00 b4 bf
       -0.6382981 1.1838465 -0.7069848 -1.4062637
000070 f2 60 f2 3e 60 62 ea 39 95 a4 ca be e0 61 49 bf
       0.47339588 0.00044705253 -0.3957869 -0.7866497
000080 a3 c2 7e 3f 1c c6 79 bf 79 7f a8 bf dc f5 e2 3e
       0.9951574 -0.97567916 -1.3163902 0.443282
000090 a7 e3 4e 3d ef 1d f2 be c7 be 41 bf ce 95 98 3f
       0.050510075 -0.47288463 -0.7568173 1.1920717
0000a0 c3 f1 87 bf 11 b8 8b bf c9 32 17 3f c9 f2 89 3d
       -1.0620655 -1.0915548 0.59061867 0.06735761
0000b0 ec d4 e2 be d9 19 2b bf 9b b0 b0 3f c5 55 4e bf
       -0.44303071 -0.66836315 1.3803896 -0.80599624
0000c0 c1 39 96 bf 70 56 38 3f 56 24 a7 3d e8 de cb be
       -1.1736375 0.72006893 0.081612274 -0.398185
0000d0 7b dc 0e bf bb 49 bb 3f e1 52 02 bf 3c b3 a4 bf
       -0.55805176 1.4631876 -0.50907713 -1.2867198
0000e0 40 35 54 3f 9d 9c c0 3d c6 3b ae be 3f 8b dc be
       0.82893753 0.094048716 -0.3402998 -0.43074986
0000f0 2e f6 b6 3f 54 74 50 be b3 79 b5 bf 6e 10 6a 3f
       1.4293878 -0.20356876 -1.4177765 0.9143132
000100 bc 41 d5 3d 62 f6 8b be a6 e1 94 be 21 8a a4 3f
       0.104129285 -0.27336413 -0.29078406 1.2854654
000110 89 df 83 3d d6 a3 c5 bf 4b 29 78 3f cd d6 e2 3d
       0.0643912 -1.5440624 0.9693801 0.11076126
000120 36 af 49 be 04 54 0f be 02 29 86 3f e9 32 88 3e
       -0.19695744 -0.13996893 1.0481265 0.2660134
000130 24 9e d3 bf 25 68 78 3f fd f6 58 3e 9a 17 f7 bd
       -1.6532636 0.9703391 0.21187969 -0.120650485
000140 f5 f2 1f 3b dd a9 44 3f 3d 76 2b 3f 2e 14 d0 bf
       0.0024406288 0.7682169 0.6697729 -1.6256158
000150 60 2b 73 3f ef 70 55 3e 50 da 48 be 51 f4 e5 bd
       0.9498806 0.20843862 -0.1961453 -0.1122824
000160 9b c5 88 3f 2c a6 13 3f d3 db c6 bf 2d e6 69 3f
       1.0685304 0.57675433 -1.5535835 0.91366845
000170 81 48 4e 3e 38 f0 89 be d5 62 66 be f8 12 aa 3f
       0.20144846 -0.26941085 -0.22498639 1.3287039
000180 e7 41 d1 3e 73 4a ba bf ee de 5b 3f 0f 98 43 3e
       0.40870592 -1.455397 0.8588704 0.19100975
000190 9e a9 ac be 25 74 aa be 1e 60 c3 3f d1 29 39 3e
       -0.33723158 -0.33291736 1.5263708 0.18082358
0001a0 74 33 ab bf 67 7b 49 3f 56 47 34 3e a0 34 cc be
       -1.3375077 0.7870392 0.17605338 -0.398839
0001b0 3c 5d de be b2 d1 d2 3f f2 d4 c5 bd 13 ca 9a bf
       -0.43430507 1.6470244 -0.09659757 -1.2092918
0001c0 b1 14 33 3f 88 21 21 3e 2d b8 e7 be 25 f9 06 bf
       0.6995345 0.15735447 -0.45257702 -0.52723914
0001d0 89 b6 d6 3f 02 7d cb be c5 88 8a bf 3e 31 19 3f
       1.6774455 -0.3974381 -1.0822989 0.5984076
0001e0 96 6d 0b 3e e6 e4 fe be c9 40 1c bf fd 15 cf 3f
       0.13616022 -0.4978401 -0.61036354 1.6178585
0001f0 e2 c9 32 bf ca df 76 bf 69 46 f9 3e 78 49 e9 3d
       -0.698393 -0.96435225 0.4868653 0.11390966
000200 73 62 08 bf 43 79 2e bf b6 04 bd 3f dc 62 78 bf
       -0.5327522 -0.6815378 1.4767063 -0.9702585
000210 ff 8c 5e bf 06 2f d0 3e 23 ed 1b 3e 67 5e 1d bf
       -0.8693389 0.40660876 0.15227179 -0.6147217
000220 26 4d 29 bf 61 39 c2 3f b1 f3 8a bf 5b 95 0a bf
       -0.66133344 1.5173761 -1.0855619 -0.5413415
000230 84 dd 00 3f 06 1a 39 3e e1 69 15 bf 72 48 1c bf
       0.50338006 0.18076333 -0.58364683 -0.6104804
000240 74 9b d8 3f d8 7a 55 bf 0d cb 1f bf 26 0e 18 3f
       1.692244 -0.8339057 -0.62419206 0.5939659
000250 34 78 55 3e 12 cc 0b bf 68 3e 0d bf c3 fd e6 3f
       0.20846635 -0.5460826 -0.5517335 1.8046192
000260 47 9c 0d bf 94 8c 39 bf 8f 5e 2d 3f 23 58 6f 3e
       -0.55316585 -0.7248013 0.6772241 0.23373465
000270 c9 18 00 bf 8e 8c f8 be cc 48 ec 3f a8 76 82 be
       -0.5003782 -0.48544735 1.8459716 -0.25481153
000280 72 a7 57 bf 2c 3f 40 3f 92 f7 82 3e 15 50 e5 be
       -0.84239876 0.7509639 0.25579506 -0.4478766
000290 5e 23 d3 be 3b bb e7 3f f9 8b 27 3d 14 d3 77 bf
       -0.4123792 1.8104013 0.040904973 -0.96806455
0002a0 75 4f 50 3f 13 3e 8c 3e 33 b1 c6 be 91 b5 aa be
       0.8137124 0.2739111 -0.38807067 -0.3334165
0002b0 fc 95 d9 3f 96 ce a1 3e 97 5c 8c bf d3 d6 5d 3f
       1.6998897 0.31602925 -1.0965756 0.8665592
0002c0 aa e6 93 3e 66 00 a5 be 88 47 7f be 04 ac c2 3f
       0.2888692 -0.32226866 -0.24929631 1.5208745
0002d0 d8 f0 0e 3f 05 15 9c bf c8 9f 67 3f a8 4e 99 3e
       0.5583625 -1.2193915 0.9047818 0.29942822
0002e0 3b 27 81 be c7 65 25 be c3 36 a4 3f 1b 99 40 3f
       -0.25225243 -0.16152106 1.2829212 0.7523362
0002f0 f0 d6 a9 bf 86 2e 6e 3f 9a 43 9c 3e cb 21 38 be
       -1.3268719 0.9303974 0.30520326 -0.17981641
000300 8a 91 93 bd a1 78 80 3f 76 54 62 3f 8f 23 b5 bf
       -0.07205494 1.0036813 0.8841013 -1.4151477
000310 0d 2a 66 3f 21 78 cb 3e 32 e1 ec bd b2 6a af 3a
       0.89907914 0.3974009 -0.1156639 0.0013383238
000320 32 e8 3b 3f 62 46 97 3f b8 27 a1 bf f3 20 64 3f
       0.73401177 1.1818354 -1.2590246 0.89112777
000330 fd cb cb 3e 55 e6 43 be e4 a3 94 bd 16 fd 84 3f
       0.39804068 -0.19130833 -0.07257822 1.0389736
000340 c6 22 8e 3f 88 73 98 bf ff 74 5d 3f 10 9f c7 3e
       1.1104362 -1.1910257 0.86506647 0.38988543
000350 aa 32 87 be de 70 15 be 67 cd a8 3f ed 66 7a 3f
       -0.2640584 -0.14593837 1.3187684 0.978133
000360 2c 33 8d bf 39 be 54 3f 34 b6 c0 3e c9 3b ab be
       -1.1031241 0.83102757 0.3763901 -0.3344405
000370 e5 23 60 be 87 cf c7 3f 4f 81 49 3f 7b 32 80 bf
       -0.21888693 1.5610207 0.78712934 -1.0015405
000380 f9 8a 49 3f 31 a7 b8 3e ec 6a cd be c7 89 93 be
       0.7872768 0.36065057 -0.40120637 -0.28816053
000390 67 ef df 3f 7b 5c 0e 3f 58 d4 61 bf 8b 58 3c 3f
       1.7494935 0.55609864 -0.88214636 0.73572606
0003a0 5e 03 b0 3e 17 9e ee be d4 65 b5 be 3d b4 f0 3f
       0.3437757 -0.46604988 -0.3542925 1.8805004
0003b0 46 a6 96 3e fc 4d 3f bf 7d 9b 2c 3f 08 6b a4 3e
       0.29423732 -0.7472837 0.67424756 0.32112908
0003c0 a5 fc 05 bf a0 f5 d4 be db 16 f9 3f b4 a2 2b 3c
       -0.5233863 -0.41593647 1.94601 0.010475803
0003d0 ff f7 1d bf 1d 84 1a 3f ee 26 94 3e 78 5d 12 bf
       -0.61706537 0.6035784 0.2893595 -0.5717387
0003e0 60 b4 f2 be 4f 6d f8 3f e9 bb 96 be 3c 38 01 bf
       -0.4740324 1.9408358 -0.2944024 -0.5047643
0003f0 cf 27 08 3f 83 e2 84 3e 3f 90 1d bf 1a 49 07 bf
       0.53185743 0.25954065 -0.6154823 -0.5284592
