trained_models/dtu_trained_cameras_105/2020/checkpoints/CamParameters/2000.pth (torch_old, 2259 bytes, 1 tensors)

weight f4 [64, 7]
0.994657 0.025433935 -0.12664594 0.012695274 0.8770568 0.11236603 -2.0718727 0.9544513
0.022771288 -0.22055286 -0.22445199 1.2015495 -0.087209344 -1.9530045 0.85413855 0.020704443
-0.30722922 -0.44974384 1.3949428 -0.41958722 -1.7931602 0.68933994 0.0186038 -0.36160672
-0.6378347 1.3685063 -0.7798032 -1.6581086 0.47604227 0.0120738745 -0.39327726 -0.78040123
1.1488326 -1.1070504 -1.5578805 0.44924408 0.06261175 -0.47046998 -0.75374717 1.3767046
-1.1989366 -1.2979046 0.59157956 0.079707995 -0.43498763 -0.65688795 1.5873688 -0.88506645
-1.3951172 0.7252061 0.09243877 -0.39780152 -0.5538714 1.6697959 -0.549127 -1.5160371
0.84125257 0.10619269 -0.35343823 -0.43230888 1.6459714 -0.21064526 -1.6442791 0.91591156
0.11294858 -0.27733475 -0.28520817 1.4599869 0.10478872 -1.8035172 0.96249497 0.11893093
-0.19938427 -0.13164188 1.1817895 0.34224445 -1.9323437 0.96506053 0.21620128 -0.12697512
0.0076122135 0.8640174 0.79308385 -1.9003339 0.9501633 0.214849 -0.20195934 -0.10713175
1.2081075 0.6877562 -1.8124647 0.9109929 0.20622401 -0.2732225 -0.22011797 1.5058596
0.48802325 -1.6973954 0.85746354 0.19519144 -0.3385231 -0.32880107 1.7267393 0.22279775
-1.5664135 0.7896265 0.1839249 -0.39852437 -0.4302207 1.8660674 -0.08174369 -1.4212723
0.7034573 0.16638367 -0.44993982 -0.523149 1.9054239 -0.4214208 -1.2815181 0.60488915
0.15192068 -0.49314296 -0.6039449 1.8620145 -0.7463412 -1.1476969 0.4953812 0.12815844
-0.5216599 -0.674045 1.7058983 -1.0609411 -1.0577478 0.42441294 0.17187944 -0.6152167
-0.666523 1.7639467 -1.1921641 -0.6724866 0.5103631 0.1905582 -0.5768403 -0.6078686
1.9332825 -0.9202987 -0.76892066 0.5998631 0.21630302 -0.53770834 -0.5483245 2.049863
-0.594648 -0.8879775 0.68342716 0.23458901 -0.49364972 -0.48610216 2.0761406 -0.2778855
-1.0336523 0.7550425 0.25909236 -0.44254962 -0.41051787 2.0373893 0.06907729 -1.1644163
0.81456065 0.2753971 -0.3858301 -0.3314275 1.914178 0.37259853 -1.3023033 0.86786413
0.29171005 -0.32432944 -0.24746564 1.7157662 0.64984334 -1.4333665 0.9006185 0.30029324
-0.2549463 -0.15845689 1.4485227 0.87168086 -1.5550872 0.9259806 0.30601984 -0.18510512
-0.06930026 1.1343398 1.024172 -1.6567777 0.90076727 0.40095833 -0.12215667 0.0036037422
0.8218182 1.3703232 -1.4769725 0.8891648 0.39635557 -0.19645187 -0.07252659 1.1762165
1.2752295 -1.4062762 0.85809535 0.38985053 -0.26172578 -0.14124109 1.4744465 1.141647
-1.300546 0.8303035 0.37617245 -0.33594203 -0.218587 1.7649115 0.90363294 -1.1872628
0.7893768 0.3611574 -0.40045288 -0.2885052 1.9750556 0.64115274 -1.0581162 0.73938864
0.34178054 -0.4597565 -0.3552499 2.1192815 0.34253168 -0.924718 0.67994297 0.317736
-0.5110311 -0.41687897 2.1913166 0.024812443 -0.79682964 0.61214644 0.29593295 -0.56041646
-0.47206396 2.1993654 -0.29185277 -0.65011615 0.5336698 0.2651274 -0.6069596 -0.52433324
00000000: d7a1 7e3f d45a d03c 79af 01be d7ff 4f3c
00000010: cb86 603f 2920 e63d 9099 04c0 ec56 743f
00000020: da8a ba3c 9cd8 61be bed6 65be 60cc 993f
00000030: d09a b2bd 0dfc f9bf d3a8 5a3f 5d9c a93c
00000040: 264d 9dbe d344 e6be 7c8d b23f 23d4 d6be
00000050: 4686 e5bf 9578 303f ff66 983c 8424 b9be
00000060: 2349 23bf 372b af3f 2fa1 47bf e73c d4bf
00000070: d0bb f33e 80d1 453c a35b c9be 60c8 47bf
00000080: f20c 933f d4b3 8dbf a168 c7bf 5203 e63e
00000090: 973a 803d 71e1 f0be 93f5 40bf db37 b03f
000000a0: c176 99bf bd21 a6bf c271 173f f23d a33d
000000b0: b3b6 debe cf29 28bf e72e cb3f b793 62bf
000000c0: 3393 b2bf 1ba7 393f 8a50 bd3d a4ac cbbe
000000d0: 84ca 0dbf dfbb d53f 9693 0cbf 810d c2bf
000000e0: 545c 573f 8e7b d93d dbf5 b4be 9757 ddbe
000000f0: 31af d23f 64b3 57be bd77 d2bf 2e79 6a3f
00000100: 9651 e73d d2fe 8dbe ce06 92be dae0 ba3f
00000110: 789b d63d a7d9 e6bf 1266 763f 0f92 f33d
00000120: 642b 4cbe 21cd 06be e144 973f aa3a af3e
00000130: 0a57 f7bf 350e 773f de63 5d3e c405 02be
00000140: e06f f93b 3f30 5d3f 8b07 4b3f 243e f3bf
00000150: e73d 733f 6001 5c3e 6ece 4ebe e467 dbbd
00000160: 44a3 9a3f ca10 303f d8fe e7bf d536 693f
00000170: 632c 533e d2e3 8bbe 9b66 61be 02c0 c03f
00000180: 2fde f93e 4144 d9bf bb82 5b3f 44e0 473e
00000190: e652 adbe 9d58 a8be cb05 dd3f 1825 643e
000001a0: 3d80 c8bf f624 4a3f cf56 3c3e 630b ccbe
000001b0: e345 dcbe 4cdb ee3f 3c69 a7bd 40ec b5bf
000001c0: c715 343f 7b60 2a3e 835e e6be 18ed 05bf
000001d0: eee4 f33f 78c4 d7be c908 a4bf 04da 1a3f
000001e0: 1891 1b3e 3c7d fcbe 229c 1abf 7e56 ee3f
000001f0: 3810 3fbf bbe7 92bf 9ba2 fd3e f73b 033e
00000200: 818b 05bf 378e 2cbf e05a da3f ebcc 87bf
00000210: 4864 87bf a74c d93e 2a01 303e d77e 1dbf
00000220: 40a1 2abf 01c9 e13f d598 98bf 1528 2cbf
00000230: 28a7 023f b021 433e ceab 13bf 479d 1bbf
00000240: cd75 f73f b298 6bbf fcd7 44bf a190 193f
00000250: 8a7e 5d3e 41a7 09bf ff5e 0cbf f530 0340
00000260: da3a 18bf 7e52 63bf 15f5 2e3f 1a38 703e
00000270: a8bf fcbe 62e2 f8be 7ddf 0440 0247 8ebe
00000280: b84e 84bf 774a 413f c1a7 843e dd95 e2be
00000290: 662f d2be 9664 0240 6578 8d3d 980b 95bf
000002a0: 0c87 503f d900 8d3e 868b c5be deb0 a9be
000002b0: c903 f53f 3cc5 be3e e0b1 a6bf 582c 5e3f
000002c0: 055b 953e 820e a6be a267 7dbe 3a9e db3f
000002d0: 225c 263f 8e78 b7bf ef8e 663f 09c0 993e
000002e0: 5288 82be 8642 22be 3169 b93f 7a26 5f3f
000002f0: 190d c7bf 110d 6d3f a2ae 9c3e 328c 3dbe
00000300: 4bed 8dbd 0c32 913f 1118 833f 4b11 d4bf
00000310: af98 663f 694a cd3e 472d fabd c32c 6c3b
00000320: ad62 523f c066 af3f 6f0d bdbf 4ea0 633f
00000330: 1eef ca3e ae2a 49be d288 94bd 438e 963f
00000340: b83a a33f dc00 b4bf 23ac 5b3f 7d9a c73e
00000350: ec00 86be 81a1 10be aaba bc3f 7d21 923f
00000360: 4b78 a6bf c58e 543f ad99 c03e 9800 acbe
00000370: 45d5 5fbe 9fe8 e13f 7d54 673f 3af8 97bf
00000380: 9914 4a3f 9fe9 b83e 2908 cdbe f4b6 93be
00000390: 9fce fc3f 9622 243f 5a70 87bf 9348 3d3f
000003a0: dcfd ae3e 3465 ebbe 51e3 b5be 4fa2 0740
000003b0: 5060 af3e 52ba 6cbf be10 2e3f 4bae a23e
000003c0: efd2 02bf 2971 d5be 883e 0c40 7743 cb3c
000003d0: 07fd 4bbf a1b5 1c3f 8684 973e 7477 0fbf
000003e0: 5eb2 f1be 67c2 0c40 ba6d 95be 036e 26bf
000003f0: 969e 083f c7be 873e b461 1bbf b43a 06bf
