trained_models/dtu_trained_cameras_83/2020/checkpoints/CamParameters/2000.pth (torch_old, 2259 bytes, 1 tensors)

weight f4 [64, 7]
1.013047 0.016562453 -0.12622488 0.005431368 1.1079545 0.11811764 -2.7856333 0.9529135
0.013165814 -0.21680538 -0.2303965 1.5451014 -0.15909398 -2.6232843 0.8434382 0.014699027
-0.29979408 -0.44628212 1.8241453 -0.5943858 -2.4129965 0.67941076 0.0053237905 -0.35940766
-0.6383469 1.7587624 -1.1407295 -2.2020478 0.47174403 0.0036727656 -0.40645468 -0.79158527
1.4853352 -1.6189904 -2.04709 0.44063243 0.05294461 -0.48192358 -0.757754 1.7887172
-1.7438942 -1.6629882 0.5862818 0.068417154 -0.44079575 -0.66211224 2.083225 -1.2963705
-1.8228152 0.7214712 0.086135015 -0.39982498 -0.55555856 2.2281752 -0.7951536 -2.00497
0.829373 0.09859578 -0.34410736 -0.4280032 2.1767414 -0.30035248 -2.208814 0.9108079
0.10628751 -0.27494562 -0.28754142 1.9320004 0.12860912 -2.4212453 0.96193916 0.11205129
-0.19684924 -0.13670136 1.5382917 0.457544 -2.6036534 0.9663043 0.21472672 -0.121215306
0.0055819126 1.0771097 1.1214149 -2.5558705 0.94697535 0.21066226 -0.19854347 -0.11000504
1.576957 0.9634642 -2.4348018 0.9102013 0.20428707 -0.26994038 -0.22123545 1.9943031
0.69764614 -2.274466 0.8574779 0.19418843 -0.33994517 -0.3301013 2.3240736 0.32098272
-2.0770733 0.7894821 0.18039986 -0.40341848 -0.4333476 2.5217412 -0.13078615 -1.8659716
0.6987754 0.15988468 -0.452884 -0.52448124 2.5662546 -0.6207259 -1.6707158 0.6010396
0.1435522 -0.50422215 -0.609888 2.4955435 -1.1060685 -1.4613914 0.48716256 0.11522709
-0.5357653 -0.68155587 2.2377586 -1.5689638 -1.3218801 0.40473533 0.148409 -0.60778904
-0.65641356 2.2861547 -1.7520612 -0.8152816 0.50594395 0.18110953 -0.5810458 -0.6091348
2.5840464 -1.329198 -0.94911456 0.59647495 0.21005936 -0.54829353 -0.55263865 2.7647066
-0.8816624 -1.0952915 0.67901 0.23544858 -0.4995715 -0.48420864 2.8290908 -0.38736427
-1.2924626 0.7507859 0.2561021 -0.44615757 -0.4107849 2.7653522 0.087604105 -1.4973266
0.81390595 0.27818152 -0.3868525 -0.32975549 2.5868893 0.5564888 -1.692925 0.86341023
0.29011562 -0.32183343 -0.24667487 2.2993238 0.9304148 -1.8921672 0.9002033 0.30183494
-0.25234422 -0.15799178 1.9135907 1.2536111 -2.0607994 0.9314504 0.3100786 -0.18125603
-0.06908572 1.4581262 1.4704726 -2.2044892 0.9026946 0.40306222 -0.11471754 0.004806844
1.0056579 1.9496659 -1.9552302 0.8910212 0.40010914 -0.19232488 -0.07127495 1.5163194
1.8232508 -1.8462625 0.8651091 0.39132872 -0.2644437 -0.14490604 1.9676805 1.6058066
-1.7062353 0.83394504 0.38068366 -0.33730012 -0.21853468 2.3650036 1.2993603 -1.5317787
0.7856118 0.3691644 -0.4046278 -0.28313223 2.6716118 0.95164406 -1.30606 0.73401767
0.34326053 -0.46143797 -0.3517363 2.8747728 0.50420654 -1.1437907 0.67657304 0.32014003
-0.51819944 -0.4153075 2.9829674 0.044053234 -0.95088416 0.6087186 0.29045057 -0.5665616
-0.47405094 2.979051 -0.43946946 -0.7739269 0.53374636 0.26195005 -0.6079531 -0.523226
00000000: 86ab 813f fbad 873c 1841 01be 9ef9 b13b
00000010: 74d1 8d3f a9e7 f13d d147 32c0 24f2 733f
00000020: 6db5 573c 3b02 5ebe 0fed 6bbe e2c5 c53f
00000030: 88e9 22be e4e3 27c0 91eb 573f 30d4 703c
00000040: 9c7e 99be 177f e4be 987d e93f ab29 18bf
00000050: 896e 1ac0 dded 2d3f 3173 ae3b 4804 b8be
00000060: b46a 23bf 201f e13f 6d03 92bf 5aee 0cc0
00000070: 6f88 f13e c8b2 703b d41a d0be 55a5 4abf
00000080: 771f be3f 143b cfbf 8603 03c0 939a e13e
00000090: 73dc 583d b0be f6be 2bfc 41bf aff4 e43f
000000a0: ed37 dfbf ccdc d4bf 9016 163f 4b1e 8c3d
000000b0: fbaf e1be 3080 29bf 8f53 0540 78ef a5bf
000000c0: 0252 e9bf 56b2 383f 8e67 b03d dcb5 ccbe
000000d0: 1639 0ebf 6c9a 0e40 308f 4bbf 6e51 00c0
000000e0: ca51 543f 96ec c93d d72e b0be 3c23 dbbe
000000f0: bb4f 0b40 cdc7 99be 355d 0dc0 b52a 693f
00000100: 44ad d93d acc5 8cbe a138 93be ca4b f73f
00000110: 1cb2 033e aff5 1ac0 a541 763f 267b e53d
00000120: d992 49be 71fb 0bbe bee6 c43f 3543 ea3e
00000130: 42a2 26c0 b85f 773f 52e1 5b3e bb3f f8bd
00000140: 7ae8 b63b bbde 893f 868a 8f3f 6293 23c0
00000150: fa6c 723f d9b7 573e fb4e 4bbe 534a e1bd
00000160: bad9 c93f 97a5 763f cbd3 1bc0 f402 693f
00000170: a130 513e a035 8abe 8c8b 62be 5345 ff3f
00000180: f098 323f da90 11c0 ac83 5b3f 55d9 463e
00000190: 4b0d aebe 0a03 a9be 9fbd 1440 d957 a43e
000001a0: c5ee 04c0 801b 4a3f beba 383e de8c cebe
000001b0: bddf ddbe 3564 2140 ceec 05be 28d8 eebf
000001c0: f2e2 323f cfb8 233e 69e0 e7be 6744 06bf
000001d0: 843d 2440 e5e7 1ebf 04da d5bf bbdd 193f
000001e0: 59ff 123e b414 01bf 9f21 1cbf fcb6 1f40
000001f0: a793 8dbf e00e bbbf 5f6d f93e 2efc eb3d
00000200: ea27 09bf 727a 2ebf 7037 0f40 ced3 c8bf
00000210: 5e33 a9bf 7839 cf3e 87f8 173e 1098 1bbf
00000220: b80a 28bf 5c50 1240 8b43 e0bf 4cb6 50bf
00000230: 8b85 013f c774 393e 6bbf 14bf 42f0 1bbf
00000240: 0461 2540 2923 aabf 2cf9 72bf 95b2 183f
00000250: cd19 573e f75c 0cbf ba79 0dbf f4f0 3040
00000260: a1b4 61bf 8332 8cbf 99d3 2d3f 6f19 713e
00000270: d6c7 ffbe 32ea f7be d30f 3540 9c54 c6be
00000280: 6a6f a5bf 8133 403f d01f 833e c46e e4be
00000290: 6652 d2be 88fb 3040 c869 b33d 66a8 bfbf
000002a0: 245c 503f cf6d 8e3e 8811 c6be b6d5 a8be
000002b0: 988f 2540 0d76 0e3f c4b1 d8bf 7408 5d3f
000002c0: 098a 943e 5ac7 a4be 5698 7cbe 1f28 1340
000002d0: aa2f 6e3f 8932 f2bf b973 663f 1c8a 9a3e
000002e0: 4333 81be 99c8 21be 8af0 f43f 5476 a03f
000002f0: 23e4 03c0 8973 6e3f 9fc2 9e3e 2e9b 39be
00000300: d07c 8dbd e1a3 ba3f 7238 bc3f 5a16 0dc0
00000310: fe16 673f 2c5e ce3e 08f1 eabd bb82 9d3b
00000320: 66b9 803f a78e f93f fc44 fabf f719 643f
00000330: 1bdb cc3e d0f0 44be 9af8 91bd c116 c23f
00000340: 4860 e93f 5452 ecbf ca77 5d3f 3d5c c83e
00000350: 2a65 87be 4062 14be f4dc fb3f 128b cd3f
00000360: eb65 dabf 6c7d 553f f8e8 c23e 9ab2 acbe
00000370: 8ec7 5fbe 385c 1740 7051 a63f 5311 c4bf
00000380: db1d 493f 1e03 bd3e 602b cfbe b5f6 90be
00000390: b0fb 2a40 f29e 733f f92c a7bf 95e8 3b3f
000003a0: d8bf af3e 9941 ecbe c816 b4be 47fc 3740
000003b0: ae13 013f bc67 92bf e433 2d3f 65e9 a33e
000003c0: b8a8 04bf 2fa3 d4be f0e8 3e40 2a71 343d
000003d0: 256d 73bf fbd4 1b3f f0b5 943e 2e0a 11bf
000003e0: ceb6 f2be c6a8 3e40 2402 e1be 1320 46bf
000003f0: 9aa3 083f 511e 863e d0a2 1bbf 24f2 05bf
